models/model2-e3.pth (torch, 390806 bytes, 10 tensors)

lstm.weight_ih_l0 f4 [512, 4]
000000 a9 bf dd 3d 20 99 79 3b cd 41 a1 bd e5 16 2b 40
       0.10827572 0.0038085654 -0.07873879 2.6732724
000010 ea 8a 1c 3e ab 46 13 3e 9e 0f 08 be 13 98 62 3d
       0.15287367 0.14382426 -0.13287207 0.05532081
000020 3b 7b 02 3e b9 b6 d9 3d 63 ab e4 3d 30 79 40 3e
       0.12742321 0.10630555 0.11165502 0.1879623
000030 fe be 02 3e 8b 6c aa 3c 0c ac d1 bf 5c d2 0d 40
       0.1276817 0.02080371 -1.638063 2.2159643
000040 21 dd 0c 3e 4c ee 18 3c 40 7f be be b0 51 99 be
       0.13756229 0.009334158 -0.3720646 -0.29945135
000050 ed be 87 3d 3c 57 c9 3d cb bb e8 bf be e0 08 3f
       0.06628213 0.09831092 -1.818231 0.5346793
000060 2d fb 02 3d a8 4b 03 3d 87 e7 b2 3b 8b e4 ce 3f
       0.03197782 0.032054573 0.005459729 1.6163496
000070 3a fb 01 3e 8a 27 16 3e 7c 29 76 3c f2 04 5e 3c
       0.12693492 0.1466352 0.015024539 0.013550984
000080 cd 01 4e 3c 72 ad 41 bd 79 ce 0b 3f f2 90 e4 bc
       0.0125736715 -0.04728455 0.5461193 -0.027901147
000090 83 33 9f be 9d 91 8b 3c 6c 7f a1 3e b0 77 43 3f
       -0.31093988 0.017037207 0.31542528 0.76354504
0000a0 77 d6 3b 3e b9 89 34 bc 65 d3 c8 3d 3b 51 21 3d
       0.1834353 -0.011019164 0.09805945 0.039384108
0000b0 c8 4f db 3d f0 db be 3c 96 56 68 3d 03 d1 9c bc
       0.107085764 0.023298234 0.0567232 -0.019142633
0000c0 69 9d 61 3e 13 8b 8a 3b ea 13 fc bd df f4 18 3e
       0.22032703 0.0042280047 -0.12308486 0.14937161
0000d0 32 b7 e5 3c 13 79 d1 bc 9c 09 0d bb 51 b8 14 40
       0.028041456 -0.025570428 -0.002152062 2.3237498
0000e0 76 c1 43 be 48 1f 11 3c 6b e4 d3 bc d7 22 c2 be
       -0.19116768 0.008857556 -0.025865754 -0.37917206
0000f0 8a 07 ff 3c b2 45 b2 bc a8 71 6d be ee 5c ba 3f
       0.031131525 -0.021761749 -0.23187888 1.455961
000100 ff 5a af bd aa 74 ab ba 26 ed d9 be 2c 4c 11 c0
       -0.08562278 -0.0013081033 -0.42563742 -2.2702742
000110 d2 b3 1f bd 4d 18 24 bd 99 0f 7c be 4f 58 85 3f
       -0.03898985 -0.040062238 -0.24615325 1.0417575
000120 dd a9 fa bb eb c0 02 3e b1 d4 6c 3f 9e 9c 2c 40
       -0.007649644 0.12768905 0.9251204 2.6970592
000130 ff 7a 3d 3d 56 4b b8 bd 4a db d3 be 4e b2 a5 be
       0.046259876 -0.08998744 -0.41378242 -0.32362598
000140 86 b4 98 bd 22 e8 e6 3c 1c a5 ac bd 1b 35 85 be
       -0.07456307 0.028186861 -0.084299296 -0.2601708
000150 d2 50 b3 3d 44 4e 2e 3d fb 2c 7b bd 27 c3 86 3e
       0.087556496 0.04255511 -0.061322194 0.26320764
000160 53 a1 24 bd 14 a4 0f bd 41 79 6c bf c0 f3 8a bd
       -0.040192913 -0.035068586 -0.9237252 -0.06784773
000170 66 80 9f 3d d9 18 37 3d 5d f3 15 bf 06 13 01 bf
       0.07788162 0.04470143 -0.5857447 -0.5041965
000180 6c a4 a9 3d 95 94 f0 3d e9 da f8 3d b5 8d 6c 3e
       0.08283314 0.1174709 0.12151129 0.23100932
000190 8f 2f 44 3e e9 f5 c6 3b fe 2d c7 be 64 53 7d 3e
       0.19158767 0.0060717952 -0.38902277 0.24738842
0001a0 c1 31 54 3c 6c 4e b9 3d ce ec 79 be c9 7b a4 3f
       0.012951315 0.09048161 -0.2440674 1.2850276
0001b0 33 c2 91 3b 8a 23 d2 3d fb c2 99 bd 48 ee 6b 40
       0.004448199 0.10260685 -0.07507893 3.6864185
0001c0 a6 96 ee bd fa 83 08 bb 4c be 8f bf 70 ce 80 be
       -0.11649828 -0.0020830617 -1.1229949 -0.251575
0001d0 bb 81 57 3d 1e e1 2c 3d f4 41 2a 3e ff be 74 3e
       0.052613955 0.042206876 0.16626722 0.23900984
0001e0 53 a7 54 be 21 74 9a bd 1b 72 c2 3e 48 71 1f bf
       -0.20766954 -0.07541681 0.3797768 -0.6228223
0001f0 07 0a 33 bd 0e 5c 92 3d 0f 99 cc be ab 31 91 3f
       -0.043710735 0.07146464 -0.39960524 1.1343282
000200 72 4b f0 bc fe ea de bd 47 be 6c bf 4e a2 b6 3e
       -0.02933285 -0.10884665 -0.9247784 0.35670704
000210 d6 fa 36 3c 08 29 cd bd 4b d9 31 be c7 5d 55 3f
       0.011168202 -0.10017592 -0.17368047 0.8334622
000220 23 0a 68 bd 7e 62 ad bc 06 43 8b 3f e1 a9 8a 3f
       -0.056650292 -0.021165129 1.0879829 1.0833093
000230 b4 70 3d bd 66 bb 7b bd da ab ba 3f 8e d7 4c 3f
       -0.04625006 -0.061458014 1.4583695 0.8001641
000240 b6 2a 63 3e 8a d3 c9 3d 56 8f e8 3b a0 d5 5a 3e
       0.22184262 0.09854801 0.007097165 0.21370554
000250 9c 9c 0a be 27 f6 8c ba 90 2b 0d 3f e8 05 d6 3f
       -0.13536304 -0.0010754511 0.55144596 1.6720552
000260 f9 f5 93 bd c0 bf 44 3d a2 f2 56 be 87 96 f5 bb
       -0.0722465 0.04803443 -0.20990995 -0.007494751
000270 8c fd 71 3e 15 99 e1 3d db 73 c9 bc 42 39 4a 3e
       0.23631877 0.11015526 -0.024591377 0.19748405
000280 2c 0b 62 be 06 b2 cd 3c fd db d2 be 1f ab 04 3e
       -0.22074574 0.025109302 -0.41183463 0.12955903
000290 3e 83 1f 3e 1c 25 06 bc 2f f7 16 3f 3a ed cc 3e
       0.15577409 -0.0081875585 0.5897092 0.4002474
0002a0 94 3e 6a 3d ea 59 b2 3d 9a cd a4 3e 23 9e 59 be
       0.057188585 0.08708556 0.32188112 -0.2125173
0002b0 8d 66 71 3d 4e 17 79 3d aa 10 8b be 4f 71 da 3f
       0.05893569 0.06081324 -0.2716115 1.7065829
0002c0 62 96 12 3d 84 37 92 bd 9f 11 cf 3e c1 19 f1 be
       0.035787947 -0.07139495 0.4044313 -0.4708996
0002d0 cf 7a 6e 3d cc 75 04 3d 79 1e 4c be 90 17 ba bd
       0.05822259 0.032338902 -0.199335 -0.090865254
0002e0 df 52 6c 3e 89 10 a2 3e 5d ea 5f 3e 7d 97 10 ba
       0.23078488 0.3165324 0.21866746 -0.00055157376
0002f0 c4 92 3d 3e 05 72 f5 3a af 84 72 bf bc 2c 2f 3f
       0.18513018 0.0018725997 -0.9473371 0.68427634
000300 16 06 47 bd 3b e8 8e bd e6 71 32 3e 6e 3f ab bd
       -0.04858979 -0.06977888 0.17426261 -0.08361708
000310 8b 35 0e bd 25 29 5f bd c9 05 8c 3e 3f 7c 48 40
       -0.03471903 -0.054482598 0.27348164 3.1325834
000320 cf 71 00 be 15 8d 37 bc 41 b9 8a 3f f1 32 da 3f
       -0.12543415 -0.01120307 1.0837785 1.7046796
000330 47 c7 d0 bd ef 30 27 bd bb 2e 1b 3f a7 b0 d7 3e
       -0.10194259 -0.04081815 0.6061818 0.42126963
000340 5a b8 f6 bd 00 aa 4e bd a9 21 67 be 37 c8 99 3d
       -0.12046881 -0.050455093 -0.22571434 0.07508891
000350 d2 53 83 bd e1 fd 68 3d 6b dd ed 3c ff b3 26 be
       -0.06412472 0.056882743 0.029036244 -0.162796
000360 45 ed 5c bd 0e 7d c7 bb 74 7c aa be 63 3c 8b be
       -0.053937215 -0.0060879057 -0.33298075 -0.2719451
000370 1a eb 16 be 5e db b9 3d dc 6e db 3e 74 b1 0f 3e
       -0.14738122 0.09075044 0.42858016 0.14032537
000380 f9 2d 1a 3e f9 8d 35 bc 08 c8 06 be fe c7 7c 3f
       0.150566 -0.011081212 -0.13162243 0.98742664
000390 b3 32 26 bd 04 71 37 bd 2d a6 37 bf 96 4d 0d 3e
       -0.040575694 -0.044785514 -0.7173794 0.13799128
0003a0 69 6e 11 3d ef 7d 75 3d 54 ad 65 3d 3c 8f f7 3e
       0.035505686 0.059934553 0.0560735 0.48351467
0003b0 99 28 e9 3c 0f c1 98 3d bc 0a 32 3f dd 50 aa 3d
       0.028461741 0.07458698 0.6954763 0.08316205
0003c0 04 7e 35 be 91 fe d9 bc ca c3 c3 3b 0f 99 bc 3d
       -0.17723852 -0.026610645 0.0059742676 0.09208881
0003d0 34 0f a1 3e 35 ef f1 3d f4 e1 34 3e 9b 15 3e 3d
       0.31456912 0.11813203 0.1766432 0.046407323
0003e0 28 28 a2 bd f2 d6 f0 3d 26 67 98 bd a8 61 80 bd
       -0.079178154 0.117597476 -0.07441549 -0.062686265
0003f0 20 58 98 bd 6e 8a 3f bd 1e bf c1 be 5f 12 92 be
       -0.074386835 -0.046762876 -0.37841123 -0.2852964

lstm.weight_hh_l0 f4 [512, 128]
000000 03 65 c1 be 13 db 0b be 53 9d 57 3f 14 d7 17 be
       -0.37772378 -0.13657789 0.8422443 -0.1482814
000010 3e d4 b5 bd 05 95 7c be 4f 59 11 3c b5 74 cf bd
       -0.088783726 -0.24666221 0.0088713905 -0.10129682
000020 6d e0 c5 3b b8 52 f0 bd 07 03 de 3e b6 3d e3 bd
       0.0060387165 -0.11734527 0.43361685 -0.11095755
000030 35 3b 98 3e 87 a7 39 be 38 e8 8c 3e 02 45 f8 3d
       0.2973267 -0.18130313 0.2752092 0.12122537
000040 2a b5 2a bd 29 ca 5f 3e c2 70 67 3c cb 87 d3 be
       -0.041676678 0.21854462 0.014126005 -0.4131454
000050 d4 32 98 3e f7 4c 09 3e fc c7 7c bd 18 de 9e be
       0.2972628 0.13408266 -0.061714157 -0.3102882
000060 ab 85 b3 3e 61 aa 2f bf 9f 6a a8 be 01 bb 9d be
       0.35062918 -0.6861935 -0.32893845 -0.30806735
000070 c6 c6 b5 3e 33 7b 50 3c 81 1a 24 bd 6f 86 81 3e
       0.35503215 0.0127246855 -0.04006434 0.25297877
000080 16 10 27 bd 05 ba a3 3d 49 23 20 3f 32 bb b8 bd
       -0.040786825 0.07994465 0.6255384 -0.0902008
000090 bf 63 95 be 55 9f 5d be 70 99 e8 3e 15 11 07 bd
       -0.29177663 -0.21642812 0.45429564 -0.032975275
0000a0 9e d0 f4 bd 3e 38 04 3f 46 1b 9e 3e 21 a7 2c be
       -0.11953853 0.5164832 0.30880183 -0.1686063
0000b0 b1 5c 11 bf 14 bc c0 be 4e 02 39 3e 4c 97 6d be
       -0.5678206 -0.37643492 0.18067285 -0.23202246
0000c0 5c 3b 02 3c 83 5b 86 ba 53 ef 13 3e 6d 4b a8 be
       0.007948723 -0.0010250661 0.14446764 -0.32870045
0000d0 7a ec c4 be 3d 0d 5f 3d fb a9 d1 3e cd 0d c2 be
       -0.38461667 0.054455984 0.40949997 -0.37901154
0000e0 03 ed 88 3e 01 8e 3d be 0a 82 6f 3e 7f 0a 68 3d
       0.26743326 -0.18511201 0.2338945 0.056650635
0000f0 62 5a 52 bf 3e d6 11 3f 32 2a bb 3d b9 41 d7 3d
       -0.82169163 0.5696753 0.091389075 0.105105825
000100 c3 52 a1 be c4 53 67 bb bf 68 54 3e 0b 3f 72 bc
       -0.31508455 -0.003529773 0.20743082 -0.014785538
000110 fe 3c 5f be c1 83 b8 3e 8d 00 02 3e ed 72 80 3e
       -0.2180061 0.3603802 0.12695523 0.2508768
000120 75 a3 20 be 09 2c 84 3d b2 13 bb 3e e6 e6 9f be
       -0.15687354 0.064537115 0.36538464 -0.3123085
000130 ad bb c4 bd d9 e2 a6 bd 68 d7 db be b4 4a 3b 3e
       -0.09606109 -0.081487365 -0.4293778 0.18290216
000140 70 35 6a 3e d9 a3 f2 3d b1 9f 12 3e c1 94 18 be
       0.22871947 0.11847658 0.1431873 -0.14900495
000150 a6 36 29 3f 6a 0d b0 be 9c e0 54 3e 27 7f 43 be
       0.6609901 -0.34385234 0.20788807 -0.19091474
000160 5b 02 96 bd 81 b9 53 3e fb 8c 6c 3d 5a ce ee be
       -0.07324668 0.20676233 0.057751637 -0.4664181
000170 ae 18 0b be 78 3a 0e bb 1f 1a 37 bd e6 1f 02 3e
       -0.13583633 -0.002170233 -0.044702645 0.12707481
000180 4b 49 00 3e d0 6a 2e 3d 62 b8 8e be 87 49 91 3e
       0.12527959 0.042582333 -0.27875048 0.2837641
000190 d7 0a f6 3e a0 d7 90 3e f0 ad 01 bf 1a 1f 9d 3e
       0.48055145 0.2828951 -0.5065603 0.3068779
0001a0 21 ec 03 bd cf 90 7c 3e 8c 98 b2 3e 8e 0c 84 be
       -0.032207612 0.24664615 0.3488201 -0.25790828
0001b0 cb f0 d0 bd 39 27 01 bc 65 b6 70 3e 4d f5 83 3e
       -0.102021776 -0.007882887 0.23507078 0.25773087
0001c0 04 e6 0c 3e 86 22 2f 3e 4a 7c ec be e7 27 ce 3d
       0.13759619 0.17103013 -0.46188575 0.100662045
0001d0 db d5 7c 3d 10 7f 38 3e 71 5d 50 be c7 02 85 3e
       0.061727386 0.1801722 -0.20348145 0.2597868
0001e0 76 c4 05 3e ec ea ac be 54 ad 60 3d d9 40 71 3e
       0.13063225 -0.3377298 0.0548528 0.23559894
0001f0 cb ac e7 3d e2 1d 8d be e9 30 12 be 81 eb 3c 3e
       0.113122545 -0.2756186 -0.1427647 0.18449213
000200 ae 70 00 be d1 f8 46 3e 40 53 5d bd 69 d9 f6 bd
       -0.12542984 0.19430853 -0.05403447 -0.120531864
000210 80 a3 f0 3d ff 5e dc bd 1c cd 8a be b7 bc 03 3e
       0.11749935 -0.107603066 -0.2710961 0.12864958
000220 43 33 2b 3c 5f 78 3a 3e 1f e2 91 bd 73 b3 6d 3e
       0.010449233 0.1820998 -0.07123207 0.23212986
000230 07 36 2a bd ea 85 57 bc f2 57 0a 3e a5 55 41 bd
       -0.04155543 -0.013154486 0.13510111 -0.047200818
000240 d5 36 cc 3d c6 6d 1a bd 47 1c ea bd 8e ce 95 3c
       0.09971396 -0.037702344 -0.11431175 0.01828697
000250 67 e3 64 b9 23 54 12 be 24 69 0b 3e 29 e9 45 be
       -0.00021828488 -0.14289908 0.13614327 -0.19327225
000260 d8 f7 0d bd 37 a4 9a bd 77 0d ac bd 20 21 b3 bc
       -0.03466019 -0.07550853 -0.08401006 -0.021866381
000270 b0 36 d9 bd a6 d8 00 be 03 60 9a 3c ca a4 d9 bd
       -0.10606134 -0.12582645 0.01884461 -0.10627134
000280 b2 9e 2d 3e de d5 f0 bd 43 43 0c 3e 00 da 50 3d
       0.16955069 -0.11759542 0.13697533 0.05098915
000290 09 dc 84 bc c8 29 dd bd 34 f5 e3 bd cf b2 9e bd
       -0.016218202 -0.10798985 -0.11130753 -0.07748949
0002a0 ec 63 42 be 78 3d 04 3e 70 93 ce bd 75 3f a5 3d
       -0.1898343 0.12914073 -0.10086715 0.08068744
0002b0 26 cc 52 bc ba 48 f4 3d 74 1b fd bc 93 b7 42 bd
       -0.012866056 0.11927934 -0.03089688 -0.04753835
0002c0 22 f1 a4 bc cd 8c c7 bd 9c dd 0f be 9b 4b 65 bd
       -0.020134512 -0.097436525 -0.14049381 -0.055980306
0002d0 98 95 2f 3d e2 fd 08 3e 04 a4 be ba 74 ff 83 3d
       0.042867273 0.13378099 -0.001454473 0.06445208
0002e0 5d ec bc bd 0a 91 37 3e 59 61 0d be 27 65 81 3d
       -0.0922477 0.17926422 -0.13806666 0.063181214
0002f0 77 33 ca bb 37 41 2b 3d c1 2b dd 3c 09 9d d7 bd
       -0.006170686 0.04181024 0.026998403 -0.10527999
000300 d0 c6 b0 3d 0f a9 78 bd 64 b2 f9 bc 48 58 e9 bd
       0.086316705 -0.0607081 -0.030480571 -0.113937914
000310 dc 50 01 3e 9b 39 dd bd 4a 62 e7 3d 85 a9 1f be
       0.12628502 -0.10802003 0.11298044 -0.1559201
000320 50 aa 4e 3e 4e ad 4b 3d e1 b9 19 be 13 b6 e4 3d
       0.20182157 0.049725823 -0.15012313 0.111675404
000330 95 8b 08 3e f0 61 3f be 97 3f f4 3d e3 1c ad bd
       0.13334496 -0.18689704 0.11926191 -0.08452775
000340 58 50 43 bd 48 1b 56 3e af a9 14 be bb 5e 0a 3e
       -0.047684044 0.20908844 -0.14517854 0.135127
000350 53 7f 67 bd 3d 46 a7 3d 93 88 d6 bb b4 5b 1a 3d
       -0.05651791 0.08167694 -0.0065470426 0.03768511
000360 53 c5 aa 3d 28 77 c4 3c c7 44 00 be 91 63 0b be
       0.08338418 0.0239826 -0.12526236 -0.136122
000370 91 59 35 be 2e 06 ae bd 02 de 3f 3e d8 c7 76 be
       -0.17709948 -0.084972724 0.18737033 -0.24099672
000380 01 3a 8e bd f6 89 dd bd e5 40 46 3c 2c 8d 12 3e
       -0.06944657 -0.108173296 0.012100433 0.14311665
000390 e3 43 66 bd 24 bb 96 bd e0 8a 63 bd 6a 8f f2 3d
       -0.056217086 -0.07359913 -0.055552363 0.1184376
0003a0 18 4d b7 bd c9 b4 a4 bd f0 2b a3 bb 5e 13 a6 3c
       -0.08950251 -0.080422945 -0.004979603 0.020272907
0003b0 e4 69 56 bd d3 08 a4 bb 92 24 a3 3d 41 14 1a be
       -0.05234708 -0.0050059347 0.079659596 -0.15046789
0003c0 38 2b 1f 3d 09 38 1d ba 2a 14 1f 3d 54 bc 11 be
       0.038859576 -0.00059974246 0.03883759 -0.14231998
0003d0 c2 11 04 be f6 47 9b bd 30 02 d4 bd c3 fb 43 3d
       -0.12897399 -0.07582085 -0.1035198 0.04784752
0003e0 77 24 23 3d 9b 6f a9 3c 43 90 3a bd f0 ea 10 3e
       0.039829697 0.0206831 -0.045547735 0.14152122
0003f0 2b 75 97 bb 9d 47 43 3c a1 9b 73 3d ac cb 9f bc
       -0.004622122 0.011918929 0.05947459 -0.019506298

lstm.bias_ih_l0 f4 [512]
000000 8b 92 e0 be 22 dc f9 3d 3f 77 0f bd db 18 8d be
       -0.43861803 0.1220019 -0.03502583 -0.27558026
000010 28 85 2c bd 11 87 21 bf c5 0c 78 bd 81 45 d5 bc
       -0.042119175 -0.6309672 -0.060559053 -0.026034119
000020 be 22 d0 bc cf 30 8e 3e bf 67 2d 3d a6 b0 cc bc
       -0.025407191 0.27771613 0.042335268 -0.024986576
000030 6d f5 2d bc 96 3c aa 3d 54 47 99 bd 27 bd 64 bd
       -0.010617596 0.08312337 -0.07484308 -0.055844452
000040 40 4e c3 3e b7 1b f0 3e 40 ee 48 be 1f 8e 49 bd
       0.38145638 0.46896145 -0.19622135 -0.049207803
000050 eb 2f 3e be 82 dd 8d bd 65 34 63 3d ed 07 11 be
       -0.18572967 -0.06927015 0.05546989 -0.1416318
000060 fd ed 94 bc b6 84 21 bf ff 7f 1d be 7f f1 bc be
       -0.018179888 -0.63093126 -0.15380858 -0.36902997
000070 d9 7a 08 3f 1c 73 35 3e d0 c5 00 bd 0c 22 a0 bc
       0.5331245 0.17719692 -0.03143865 -0.019547485
000080 f2 2f de 3d b5 31 b0 3e 29 fb a6 bd 80 ed e5 3e
       0.108489886 0.34412923 -0.08153374 0.4490776
000090 08 15 80 3e 25 f3 5f 3e 44 d1 ce 3c 3b 68 a3 3d
       0.25016046 0.21870096 0.02524627 0.07978865
0000a0 0c cc fd 3d ed 2c 32 bf a0 47 73 be 0b ee 19 bf
       0.123924345 -0.695998 -0.23757792 -0.6012885
0000b0 68 67 f2 bc 6d 78 96 3c 9b f8 7f 3e b2 cf 05 bf
       -0.029590324 0.01836797 0.24997179 -0.5227004
0000c0 f6 50 a2 3b 9e 9b 75 3e d9 13 f5 3e b0 08 06 be
       0.004953499 0.23985144 0.47866705 -0.13089252
0000d0 43 bf 17 3e e1 cf e8 3d 56 b4 80 3a a4 75 74 3e
       0.14819054 0.11367775 0.0009819369 0.23873001
0000e0 f0 dd ed bc 35 86 0a 3e fa 83 da bd 7f df 01 be
       -0.029036492 0.13527758 -0.10669704 -0.12682913
0000f0 cb 1a 31 3e 42 e1 3d 3e 17 41 2c bd 29 d3 c6 3d
       0.17295377 0.1854296 -0.042054262 0.09708244
000100 cd f1 3f 3e e2 cf 66 3e c5 bc 66 3e fa 36 ef 3d
       0.18744583 0.22540238 0.22532947 0.11680408
000110 0f f3 52 bd 47 5b 23 3f 22 42 41 3e 91 d4 32 3d
       -0.05150133 0.63811153 0.18872884 0.04365975
000120 5a 46 51 3c 5b 7d 3d be 35 fd 12 3f 4d 23 25 3e
       0.012773121 -0.1850485 0.57417613 0.16126747
000130 6f 96 08 bc fe aa 34 3e 71 4c 08 3d c3 69 10 bf
       -0.008336647 0.17643353 0.033276025 -0.5641138
000140 21 d1 3c 3e 14 d0 e1 3d 93 7d 59 3d fe b3 f3 3d
       0.18439151 0.11026016 0.053098273 0.11899565
000150 a3 a5 cc 3d a9 1d a0 3e 5d 43 43 bd 05 1d 69 3c
       0.0999253 0.3127263 -0.047671665 0.01422811
000160 06 18 88 3e b7 16 d1 bd 1a af 85 bd d4 68 dc bd
       0.26580828 -0.10209411 -0.065275386 -0.10762182
000170 9a 6a 38 3e 84 56 7c 3e 01 59 98 3e 07 e7 6a 3d
       0.18009415 0.24642378 0.29755405 0.05734923
000180 2f f1 c6 bd 8f 75 ff 3d 67 42 de 3d 05 ac e4 3d
       -0.09713971 0.124735944 0.10852509 0.111656226
000190 33 69 54 3e 5b bb 53 be 30 78 ee bd 32 4f 30 be
       0.20743255 -0.20676939 -0.11644018 -0.1721771
0001a0 b5 5d fd 3c b5 4e 00 3d 19 8d e7 3e 8f 4c c5 3d
       0.030928472 0.03132506 0.45224836 0.09633743
0001b0 df 9e a7 3e ed c5 af 3e 73 9c 70 be 12 81 4f 3e
       0.32738397 0.34330693 -0.2349718 0.2026408
0001c0 e0 20 b7 bd a7 7e a0 3d b7 36 79 3d d3 21 b1 3d
       -0.08941817 0.07836657 0.060843196 0.086490296
0001d0 59 11 48 3e 03 9a 22 3e c0 42 f6 3d 9d 71 b2 3d
       0.19537868 0.15879063 0.1202445 0.08713076
0001e0 70 a2 23 bc 2e 8c 55 be 81 9c 27 3e 0f cb 23 bd
       -0.009987459 -0.20854256 0.16368295 -0.039988574
0001f0 38 42 a1 be da ce 36 3e 4c 14 08 3f 49 97 99 bd
       -0.31495833 0.17852345 0.5315597 -0.074995585
000200 03 b1 f1 3d 39 d5 16 3e a3 77 c5 3c 74 a3 62 3e
       0.118013404 0.14729775 0.024104899 0.22132665
000210 96 bb e6 bc a6 7b 1e bd 48 7c cf bd 4c f2 99 3d
       -0.02816562 -0.03869214 -0.10131127 0.075169176
000220 ce 12 6c bc c2 3c 5c bd 37 87 29 3d 10 55 95 bd
       -0.01440878 -0.05376888 0.041388717 -0.07291615
000230 c5 b3 35 be 31 22 c3 bd 1a c4 61 bd 97 f1 41 3d
       -0.17744358 -0.09528006 -0.055118658 0.04734954
000240 1a 8e c4 3e 37 19 94 3e cb 49 11 3e 3c 98 2d 3e
       0.38389665 0.28925487 0.14188306 0.16952604
000250 03 4b 9b bb 44 10 58 3e 1d 93 fc 3c ec 67 39 bd
       -0.0047391667 0.21099955 0.030831868 -0.045265123
000260 58 6e 28 3e 58 07 bc 3d d8 bf cc bd 72 2b 51 bd
       0.16448343 0.09181088 -0.09997529 -0.051066823
000270 5d 9b c9 3e 24 c7 91 bd de 44 10 3e a2 1b 71 ba
       0.39376345 -0.07118061 0.14088771 -0.0009197538
000280 8b 15 64 3e ed 1f c0 3e f8 07 7b 3d 79 61 ce bd
       0.22273843 0.37524357 0.061286896 -0.10077185
000290 cb 25 c1 3c ce 94 c5 3d 06 ad bd 3d 75 ea 01 3e
       0.023577591 0.09647523 0.09261517 0.12687095
0002a0 28 61 c3 3d 67 f2 a2 3d 18 a7 a6 3d 52 8d 6a 3d
       0.095400155 0.07956391 0.08137339 0.05726368
0002b0 7f 41 3a 3d 09 3d 73 3d 49 df b8 bd ba 7b 62 3e
       0.04547262 0.05938438 -0.09026963 0.2211751
0002c0 fe f9 b9 3d 3a 00 7e 3e 82 07 07 3f ec 5f 0e 3e
       0.09080885 0.24804774 0.5274583 0.13903779
0002d0 fa 6e 3a 3e b4 9b 7e bd 12 55 92 3c 73 74 88 3e
       0.18206397 -0.06216021 0.01786283 0.26651344
0002e0 bf 70 a2 3d 5e 51 8a 3e 02 f8 80 be a4 4e d2 3d
       0.07931661 0.27015203 -0.25189215 0.10268906
0002f0 27 a3 2f bc 44 37 3a 3c bd 72 d1 bc 12 f0 01 3d
       -0.010720051 0.011365715 -0.025567407 0.03172309
000300 2b b3 db 3d 62 d9 18 3e d0 a8 8a 3e 1f fb 15 3e
       0.10727533 0.14926675 0.2708192 0.14646576
000310 2e 70 21 bd 60 88 74 3e 94 e8 94 3c ae 89 bb 3d
       -0.039413624 0.23880148 0.018177308 0.0915712
000320 c8 72 52 3d be 61 de ba b0 2e c3 3e 9e 2b 18 3d
       0.051378995 -0.0016966385 0.38121557 0.03715097
000330 e9 04 be bd 67 25 b5 3e 6a 82 d3 bc 45 1a 59 3e
       -0.0927828 0.35380098 -0.025819022 0.21201427
000340 34 50 07 bd 13 17 6b bb e7 bb 7f 3d ac 79 97 3e
       -0.033035472 -0.0035871908 0.062435057 0.29585016
000350 e8 41 f3 bd 1a be e3 3e e1 d1 33 3e 2b ac e5 3d
       -0.11877805 0.44480973 0.17560531 0.11214479
000360 66 9d bf bd ba 11 37 be 17 48 82 3e 2b a6 0c 3d
       -0.09356193 -0.17877856 0.25445625 0.034338158
000370 4c b9 3b 3e 3f 50 a2 3d 23 b8 61 3c 9e 4b 80 3e
       0.18332404 0.07925462 0.013776812 0.2505769
000380 7c 51 f1 3d 83 42 1a 3e 28 9c 2c bd 57 7a 15 3e
       0.1178312 0.15064435 -0.04214111 0.1459745
000390 f6 ec 92 3d 0a 72 36 3e 18 26 32 3d b5 e5 86 3e
       0.07174103 0.1781694 0.04349336 0.26347128
0003a0 35 bc 35 3e 59 7a ca 3c 6b 04 2d 3e b1 40 68 bd
       0.17747577 0.024716543 0.16896217 -0.05670232
0003b0 5d ff 2a 3e b4 02 9a 3e 96 b8 94 bd 79 1e c7 3d
       0.16698976 0.30080187 -0.072617695 0.09722609
0003c0 82 6f 53 bd 5d f6 b2 3e 60 44 b8 3c 4a 2d 0a 3e
       -0.051620014 0.34953585 0.022493541 0.13493839
0003d0 ab 30 57 3d 1d 73 14 bd 37 7d 0d 3b f8 1d 44 3c
       0.052536648 -0.036242593 0.0021589526 0.011970036
0003e0 d9 b2 91 3d dc b0 d9 3d b1 46 7d 3d b4 02 88 3d
       0.071141906 0.106294364 0.061834995 0.066411406
0003f0 18 ac 6e 3e 1d 00 0a bd d9 1b 62 3e 6d fe e2 3d
       0.23307836 -0.033691514 0.22080936 0.11083684

lstm.bias_hh_l0 f4 [512]
000000 0e d1 b9 be cc 5c 73 3e 81 3a 81 bd 73 12 b7 be
       -0.3629231 0.23765868 -0.06309987 -0.35756263
000010 fe 1d 1e be 46 d4 34 bf 30 ff 29 bd d0 8d 31 3d
       -0.15441129 -0.70636404 -0.04150313 0.043348134
000020 38 67 10 bd 36 60 85 3e 49 f3 09 3d ae dd 32 bd
       -0.035254687 0.26049966 0.03367928 -0.04366844
000030 50 3c 05 be bd f5 13 3d 01 78 67 3d 67 62 0e 3c
       -0.13011289 0.036123026 0.05651093 0.008690453
000040 9c fb 94 3e a8 64 d6 3e 3b 62 32 be 5b 55 13 bd
       0.29098213 0.4187367 -0.17420284 -0.035970073
000050 09 4e 6a be c3 ac 2e bd 49 92 93 bd 1d f3 60 be
       -0.2288133 -0.042645227 -0.07205636 -0.2196774
000060 f8 15 71 3d bd 6f 3b bf 60 74 6b bd 10 a6 cc be
       0.05885884 -0.73217374 -0.05748403 -0.39970446
000070 21 08 04 3f 2e 89 3a 3e 16 09 bc bd 1c 59 f7 bd
       0.51574904 0.18216392 -0.091814205 -0.12077543
000080 66 b3 5d 3d 23 1e fb 3e 98 f1 16 be 04 c4 93 3e
       0.054126166 0.4904643 -0.14740598 0.28860486
000090 77 33 1d 3e 25 f9 7b 3e 51 d1 00 be 95 2b 13 3d
       0.15351664 0.2460676 -0.12579848 0.035930235
0000a0 3c d0 7c 3e bf d2 17 bf 30 a3 fe bd ab 33 fe be
       0.2468881 -0.5930595 -0.12433469 -0.49648795
0000b0 51 f4 7b bd f9 02 83 3d 96 16 a3 3e 6a 44 e3 be
       -0.061512295 0.06397051 0.3185317 -0.44388133
0000c0 32 15 1f 3e db f9 56 3e 5e 8b ea 3e 3e 8f 3d be
       0.15535429 0.2099375 0.45809454 -0.18511674
0000d0 41 17 37 3e 15 e4 0e 3e ea e3 57 bd 51 66 cd 3d
       0.17879964 0.13954194 -0.05270759 0.10029281
0000e0 5e fc 26 bd 13 31 01 bd 0c 4b 06 be 3a cc 04 be
       -0.04076802 -0.03154094 -0.13114566 -0.12968531
0000f0 a2 69 7c 3e 6a 18 65 3e 30 6b 38 bc ab eb 4f 3d
       0.2464967 0.22372594 -0.011256024 0.05076186
000100 20 0e 82 3e ef a2 32 3e 41 b0 63 3e b0 00 82 3d
       0.25401402 0.17444967 0.22235204 0.063477874
000110 47 ca 35 bd c5 06 21 3f fe 9c 32 3e 49 28 98 bd
       -0.04438236 0.62900954 0.174427 -0.07429559
000120 89 39 f1 3d 0f 3e ab bd 72 69 e4 3e 38 74 f4 3d
       0.11778552 -0.08361446 0.44611698 0.119362295
000130 1e d8 43 bd eb 02 2b 3e c6 c5 b6 3c 67 9c 14 bf
       -0.047813527 0.16700332 0.022311103 -0.5805115
000140 2f 79 c9 3d 73 64 54 3e 1f 8c eb 3d 1f 8e 03 3e
       0.09837567 0.20741443 0.11501335 0.12847184
000150 1b a9 8b ba ac 1c d1 3e 8a 9f c3 bc db d8 e5 bd
       -0.0010655256 0.40842187 -0.023879785 -0.112230025
000160 5f 8d 98 3e 5a 47 8f bd c8 84 c9 3d 27 18 a2 bd
       0.29795358 -0.06996031 0.09839779 -0.07914763
000170 fd 95 23 3e d0 aa b7 3e 95 60 ae 3e 00 6c a3 3c
       0.15975185 0.35872507 0.3405806 0.01994896
000180 c0 1d 22 be 71 b2 89 3d d5 1f 7d 3e 63 94 43 3d
       -0.15831661 0.06723488 0.24719174 0.047748934
000190 79 d5 b6 3e 56 ce 39 be 40 00 d2 bd 6d aa 3b be
       0.35709742 -0.18145117 -0.10253954 -0.18326731
0001a0 4a 97 24 bc 62 df d0 bd 96 af e9 3e 75 7f 61 3c
       -0.010045836 -0.10198857 0.45641774 0.013763298
0001b0 d4 2c c3 3e 7d 8c a5 3e 0c 73 aa bd 73 b6 b0 3d
       0.3812014 0.32333747 -0.08322725 0.086285494
0001c0 e7 8b 0b be 69 a4 ac 3d 07 9f 07 bc bb 97 64 bb
       -0.13627587 0.08429796 -0.008277661 -0.0034880477
0001d0 90 09 f8 3d ac 1f 7e 3e 01 f1 2c 3e b3 5c e6 3d
       0.12111199 0.2481677 0.1688881 0.1124815
0001e0 0c a5 e8 bd b7 b7 3f be 82 22 91 3e b5 74 a3 bc
       -0.11359605 -0.18722425 0.2834664 -0.019953111
0001f0 77 f2 9d be d5 8d 76 3e f7 75 d5 3e 1b f3 b1 bd
       -0.30849048 0.24077542 0.41691563 -0.08688947
000200 c3 9b 26 3d fa ab fb 3c 43 5c 35 3e 0b 12 66 3e
       0.04067589 0.030721653 0.17710976 0.2246782
000210 84 26 9c bd 3c 18 4a bb 3f f0 c1 bd 97 48 09 3e
       -0.07624534 -0.0030837199 -0.094696514 0.13406597
000220 3a ef 71 bd 7e 9a 2d bd 2e ce 77 3d bd 7f 73 bd
       -0.059066035 -0.042383663 0.060499363 -0.059447993
000230 77 58 03 be a5 12 86 bd a1 a9 76 3d 8e 1b 91 3d
       -0.12826715 -0.06546525 0.060220364 0.07085334
000240 47 d1 a4 3e 6b 61 8d 3e b4 d5 f0 3d a7 c9 2f 3e
       0.32190916 0.27613387 0.11759511 0.17166768
000250 48 3c f0 3c a5 29 07 3e a9 f3 20 3c a3 b9 02 bd
       0.02932562 0.1319948 0.009823718 -0.03191532
000260 3c 0c 44 3d f7 4d 22 3e 76 34 10 be 20 76 54 3d
       0.04786323 0.15850054 -0.14082512 0.051870465
000270 23 c1 e9 3e e8 c1 51 3b 3e 70 c1 3d b7 69 40 bc
       0.45655164 0.0032006446 0.094452366 -0.011743954
000280 53 b1 d1 3d 9d 81 ab 3e cf f6 ce 3d 2c a6 ea bd
       0.102389 0.33497325 0.10105669 -0.11457476
000290 b2 e4 ae bd fa 3c 06 3c 83 f0 bc 3d c9 ca 71 3e
       -0.08539714 0.008193249 0.092255615 0.23612513
0002a0 15 73 fe bc 48 89 d2 3d 3f 6a cf 3d 4b 4c b4 3d
       -0.031060735 0.102800906 0.10127687 0.08803614
0002b0 1b 1f fe 3c 25 d7 66 3d 0d ec 3d be fc 10 0c 3e
       0.031020692 0.05635752 -0.18547077 0.13678354
0002c0 9b b8 c2 3d 21 87 1c 3e 5a 74 ef 3e 03 57 79 3d
       0.09507867 0.15285923 0.46768457 0.060873996
0002d0 f4 ec 1c 3e 5c 8c dc bd 53 70 b8 3c fe 69 b0 3e
       0.15324765 -0.10768959 0.022514498 0.34455866
0002e0 61 26 f4 3c 47 ae 89 3e 46 16 2d be 52 52 08 3d
       0.029803457 0.26890776 -0.16903028 0.03328163
0002f0 d3 63 f8 3d 3c 97 de bd d7 e6 b5 3d b1 e3 af bc
       0.12128415 -0.108686894 0.0888192 -0.021470876
000300 30 06 24 3e 4d 1c 23 3e d7 93 a8 3e 48 9f eb 3d
       0.16017985 0.15928765 0.32925293 0.1150499
000310 e4 5e d0 3d 76 9d 93 3e 6f 9d 39 3c 9f 81 a5 3d
       0.10174349 0.2883107 0.011329039 0.08081364
000320 42 70 e4 3c 3d 03 1f bd d7 c7 b5 3e f0 53 9b bc
       0.02788556 -0.038821448 0.35504028 -0.018960923
000330 e4 11 e2 bd b2 9d a4 3e d5 79 f8 3d 9d eb 75 3d
       -0.110385686 0.32151562 0.121326126 0.06003915
000340 cf f4 fc 3d 7a 2e 70 3d dc da 48 bd 3a a9 bb 3e
       0.12351381 0.058638074 -0.049036846 0.36652547
000350 fa 75 9a bd 13 24 ab 3e 7f 6e 55 3e eb 1d 02 3e
       -0.075420335 0.3342596 0.20842932 0.12706725
000360 56 fb 97 3c 6d 58 be bd eb ba 87 3e 1a fa a0 bb
       0.018552464 -0.0929421 0.26509795 -0.004912627
000370 95 94 1a 3e 01 a7 25 3e 05 8d d4 3c 36 7e a4 3e
       0.15095742 0.16176988 0.02594615 0.3212754
000380 e3 f0 28 3e f2 ce fa 3d 57 67 c5 bd ee 5b d4 3d
       0.16498141 0.12246503 -0.09638851 0.10369097
000390 74 92 00 3e c3 f1 b5 3d 49 66 11 bd e2 17 2f 3e
       0.12555867 0.08884003 -0.035497937 0.17098954
0003a0 d0 02 3a 3e fa fc 89 bb 49 74 9e 3d 8a 60 20 3d
       0.18165135 -0.0042110654 0.077370234 0.039154567
0003b0 de b8 ab 3d b1 a6 89 3e dd 85 ca bd 06 67 42 bd
       0.0838487 0.26884988 -0.09888814 -0.047461532
0003c0 d1 71 2f be 56 cd a1 3e f8 b0 21 bc 64 c8 1f 3e
       -0.17133261 0.3160197 -0.009868853 0.15603787
0003d0 12 d3 0d 3d 58 fd 0b be 71 1c 7d 3d 33 81 0f 3c
       0.03462512 -0.13670862 0.061794702 0.008758831
0003e0 7b 1d c2 3d 14 61 c5 3d bc d6 32 3e 1c aa 73 bd
       0.09478279 0.09637657 0.17464727 -0.0594884
0003f0 25 d5 3e 3e 92 7f 8b bc 96 1b 7e 3e 52 dd d9 3d
       0.18635996 -0.017028604 0.2481521 0.106379166

pitch_layer.weight f4 [88, 128]
000000 f9 9c e3 3e 31 ff 06 bf 46 12 87 be 3f 42 8b 3d
       0.44455698 -0.5273314 -0.2638113 0.06799745
000010 77 ab 0a bf 6b 5d 05 be 61 af 99 3e db 48 98 be
       -0.54167885 -0.13023917 0.30016616 -0.29743084
000020 e1 0e 04 3f eb db 54 3c 92 83 42 bf 7e ff 28 3e
       0.51585203 0.012991886 -0.7598201 0.16503713
000030 ac b8 c0 3e 57 9e 5a be 42 1c c5 bd 3a 2c 4d bf
       0.37640893 -0.21349464 -0.096245304 -0.8014561
000040 90 ca d9 bc 36 94 3f 3f 4e e2 06 3e 99 36 bf be
       -0.026585847 0.74835527 0.13172266 -0.37346342
000050 50 a7 31 3d ab da 1b 3e f5 90 a3 3e 12 15 70 be
       0.043372452 0.15220134 0.3194653 -0.23445538
000060 c2 93 35 3f 00 6f 16 bf 66 62 a1 be a1 c5 aa be
       0.70928586 -0.5876312 -0.31520385 -0.33353904
000070 f6 88 38 3f 23 b3 04 be 31 8b eb be 11 dd 6c 3e
       0.72083986 -0.1295896 -0.46004632 0.23131205
000080 13 9a 29 c0 df e2 2c 3e 77 6d f6 bd e6 a4 4d be
       -2.650029 0.1688342 -0.120325975 -0.20082435
000090 6e 9c 23 be 3b 07 85 be 5c e3 81 3e 53 21 48 3e
       -0.15977642 -0.2598208 0.25368774 0.19543962
0000a0 e7 54 b6 be 4b c6 8a 3e a6 1f d7 3e e2 35 db bd
       -0.3561165 0.2710441 0.42016333 -0.10703637
0000b0 6e 98 1c be f6 79 b9 bc a7 07 0e 3d b2 5f 96 be
       -0.15292522 -0.022641163 0.034675267 -0.29369885
0000c0 e3 c9 83 3f 8c e9 4e 3f dc e9 1b 3f 1a c0 c5 bd
       1.0295986 0.80825114 0.60903716 -0.09655781
0000d0 ae 20 37 3d 39 a2 e3 be cd dc 17 3f 23 51 8e bf
       0.0447089 -0.44459704 0.5932129 -1.1118511
0000e0 eb ff cc 3e 77 a5 a5 3d 24 dd 2e 3e cc 06 4b be
       0.40039 0.080882005 0.17076546 -0.19826812
0000f0 77 f2 37 3e f3 24 df 3d ef 64 2f 3f 14 02 ec 3e
       0.17963587 0.108957194 0.6851339 0.46095335
000100 ac 89 e2 be 68 09 0b 3f 5c 48 cb 3e 26 83 31 3e
       -0.4424566 0.5431123 0.39703643 0.17335185
000110 19 69 14 bf 9c bd 04 3f d7 5a 79 3d ed ab 7d 3d
       -0.57972866 0.5185182 0.060877647 0.06193154
000120 1e 4f a2 3e c8 3b 23 3f 7b ec 87 3e c3 eb 86 bd
       0.31700987 0.63763094 0.26547608 -0.06587937
000130 44 67 1c be ab e4 98 3c 34 f6 00 be 0b 04 6f be
       -0.15273768 0.018663725 -0.12593919 -0.23341386
000140 77 37 c0 3d c4 6c e2 be 98 ce 37 3e dd bf c5 be
       0.09385579 -0.44223607 0.17949903 -0.38622943
000150 d6 1c 75 be dc 65 35 bf 33 d6 69 bc 5a 8e ed be
       -0.23936781 -0.7085855 -0.0142722605 -0.46397668
000160 96 b4 30 be 9a 1f 4e 3b 71 eb f5 3f 38 c1 11 3e
       -0.17256388 0.0031451941 1.9212476 0.14233863
000170 52 c8 01 3f e6 69 ae 3f 93 d4 98 be f4 59 0b 3e
       0.5069629 1.3626068 -0.2984968 0.13608533
000180 8a a0 62 bd e7 c5 c2 bb 75 eb 5d bc fe 11 59 be
       -0.055328883 -0.005944002 -0.013544907 -0.2119827
000190 91 84 90 be 98 26 ef 3e 1a 95 09 bf 6d 3c 01 3f
       -0.2822614 0.46709132 -0.53743136 0.5048283
0001a0 e4 de f3 bc 31 63 22 3c ab 99 81 3e 9e 53 92 be
       -0.029769368 0.009911344 0.25312552 -0.2857942
0001b0 55 05 81 3e 1e 42 98 3d 30 62 fd 3d 69 f4 b0 3e
       0.2519938 0.07434486 0.123722434 0.3456147
0001c0 26 ed fc be fd 5e c2 3e 41 5e fd be c5 fd 0b 3f
       -0.4939968 0.37963095 -0.49485973 0.54684097
0001d0 48 f6 1d 3f b1 e5 d3 3e 3a 95 60 3d 8e 4b d4 3d
       0.6170392 0.41386178 0.054829814 0.103659734
0001e0 bd 04 0a be 59 33 25 be 09 57 f6 3e 1f 0a 4b 3e
       -0.1347837 -0.16132869 0.48113278 0.1982808
0001f0 2a 87 db bd d3 43 85 bf ff e7 29 bf 85 81 17 bf
       -0.1071914 -1.0411323 -0.6636962 -0.59182006
000200 cf 89 85 39 44 b0 03 bf d3 85 a1 be b9 69 9d 3d
       0.00025470412 -0.51440835 -0.31547412 0.076861806
000210 49 43 56 be 1d c4 bb be 80 3c b6 bc ca 2b 86 be
       -0.20924105 -0.3667306 -0.022245646 -0.26205283
000220 65 75 d3 3f f7 4b 8d 3d 03 93 28 be 75 81 e0 3e
       1.6520201 0.06899255 -0.1646233 0.43848768
000230 5f 04 ec 3e 2a c3 bf be 6e 91 45 3d bf 7e 3f be
       0.46097085 -0.37453586 0.048234396 -0.18700694
000240 89 70 8d bc d3 3f cf 3e 7d a9 25 bd 35 f9 83 be
       -0.017265575 0.40478382 -0.04044484 -0.25776067
000250 af c2 47 be a8 c0 f6 3d 5e 7e 23 3f d3 c2 72 be
       -0.1950786 0.12048465 0.63864696 -0.23707132
000260 35 a1 97 3f 0f 7f fb be eb 0c b0 be 0a bf e9 be
       1.1846071 -0.49120376 -0.34384856 -0.45653564
000270 1e 5c fb 3e d4 54 d0 bd b1 fc b9 be bd 12 38 3e
       0.49093717 -0.1017243 -0.363256 0.17975898
000280 0f 08 a5 bf 35 36 aa 3e 90 bb bf be 0f 83 5e be
       -1.2893084 0.33244482 -0.37447786 -0.21729682
000290 b9 f8 a5 bd ca 05 16 be 10 85 ae 3e 28 b7 60 3d
       -0.08104081 -0.14650646 0.34085894 0.05486217
0002a0 34 a4 1e bf cc 36 68 3e 82 ab e2 3e e1 ae 17 be
       -0.61969304 0.22677153 0.44271475 -0.14812805
0002b0 56 8d 15 be ab 9e 25 3d 09 6f 5e 3e b9 03 a1 be
       -0.14604697 0.04043452 0.21722044 -0.31448153
0002c0 9a 01 88 3f 7e 63 b0 3e e1 a9 8b 3e 52 d1 8e 3e
       1.0625489 0.34450907 0.27278045 0.27894074
0002d0 b7 19 ac 3c c1 bc 8d be fe 69 54 3f 08 a8 b0 be
       0.021008356 -0.2768307 0.8297423 -0.34503198
0002e0 1c 00 0d 3c 0b a3 e1 3d 45 45 08 3e fc 06 78 3e
       0.008605983 0.11017426 0.13307674 0.24221414
0002f0 65 a0 88 3e b5 ff 2b 3e d9 75 2b 3f 40 b8 cf 3e
       0.2668487 0.16796763 0.66976696 0.4057026
000300 56 1a 10 bf d7 1a b1 3e e1 de f0 3e 28 29 71 3d
       -0.56290185 0.3459079 0.47045043 0.05887714
000310 ef df 8c be a1 7d 59 3f 9f 4a d2 be 88 ee 0b 3d
       -0.27514598 0.8495732 -0.41072556 0.034163028
000320 1c 8e 84 3e 58 c3 73 3f a0 56 98 3e e7 83 b4 bd
       0.2588967 0.95219946 0.2975359 -0.08814221
000330 11 16 70 be f0 87 4a bc 0c ca 7a be 4e 3f 64 be
       -0.23445918 -0.012361512 -0.24491137 -0.22289774
000340 74 74 09 bd 0e db 87 be c9 ef 29 3d 73 e4 1e be
       -0.033558324 -0.26534313 0.041488443 -0.15516834
000350 e4 dc 06 bf 85 13 c0 be c3 e1 08 be 57 66 17 bf
       -0.526808 -0.37514892 -0.13367371 -0.59140533
000360 76 9a 19 be 75 19 de be a0 86 e5 3e 86 95 e5 3e
       -0.15000328 -0.43378797 0.44829273 0.4484064
000370 18 bd 86 3e 12 ac 2f 3f 63 02 d0 ba ba a3 1c be
       0.26316142 0.68621933 -0.0015869852 -0.15296832
000380 17 ef 71 be 78 61 4a 3d 1d 51 22 bd 01 37 22 be
       -0.23626362 0.04940936 -0.039628137 -0.15841295
000390 17 97 19 bf da 0d b8 3e 36 c4 1a bf b1 19 0c 3f
       -0.5999617 0.35948068 -0.60455644 0.547267
0003a0 5e 6c ac 3d b8 7c 6d 3e e1 7c fb 3e 7b bf b1 be
       0.08419107 0.23192108 0.49118713 -0.347164
0003b0 7b 63 c2 3e d3 52 be ba 7f d0 87 3d 6f dc ff 3d
       0.37966523 -0.0014520533 0.06631564 0.12493216
0003c0 b5 f6 75 be d2 d2 d1 3e 21 00 1c bf 2c 99 e8 3e
       -0.24019893 0.40981156 -0.60937697 0.4542936
0003d0 56 c5 b1 3e a8 28 52 3e dd bf c2 be 71 e6 24 3e
       0.34720868 0.20523322 -0.38037005 0.16103531
0003e0 b8 b1 09 3c e7 f3 f4 3d f2 c0 9c 3e dc f0 db 3d
       0.008404188 0.11960583 0.30615956 0.107393
0003f0 59 d8 5e be ac 32 56 bf e0 ef 07 bf b7 cb d5 bc
       -0.21762218 -0.8367107 -0.53100395 -0.026098115

pitch_layer.bias f4 [88]
000000 c8 4c 22 bd 9e 7c fa bd 31 32 d9 bc e9 f7 35 be
       -0.039624006 -0.122308 -0.026513191 -0.17770351
000010 bc 56 8a 3c f9 ca 14 3d 0a f8 46 bd 62 8d 20 3c
       0.016887061 0.036326382 -0.048576392 0.009799333
000020 4c 1e 8b bc e7 28 8c 3c 17 43 74 bd 92 e1 94 bd
       -0.01698222 0.017109348 -0.059634294 -0.072695866
000030 13 d8 3e 3d a7 e5 84 3d 4a 7d 0d be 47 14 06 3d
       0.046592783 0.06489115 -0.13817325 0.03273418
000040 ab 37 80 bd 37 1f 9f 3b 81 c7 0a 3c 12 df 98 bd
       -0.06260618 0.004856016 0.008470417 -0.07464422
000050 d5 eb cb bd 6c 7e 67 bd 9c b0 eb 3c 5a 8f 2b 3d
       -0.09957091 -0.05651705 0.028770737 0.041884758
000060 cd e7 0c bd 16 91 09 bc 97 bb 97 3d ae df a1 3d
       -0.03440075 -0.008396408 0.07408827 0.07903992
000070 17 de bc bc b1 ea 0c bd 2b 51 8e 3d b2 4d 3e 3d
       -0.02305512 -0.034403507 0.06949075 0.046460815
000080 b6 31 87 bd d7 84 03 be 85 05 8b bd 99 f7 82 bd
       -0.066012785 -0.12843643 -0.06788162 -0.06394882
000090 dd 6c 22 bd 3e cc 94 bd e4 9a b9 3b 68 e2 6e 3b
       -0.0396546 -0.072655186 0.0056642164 0.0036450867
0000a0 63 bb 80 bd ac e6 56 bd 8c 36 4b bb a3 58 75 3d
       -0.06285741 -0.05246608 -0.0031007854 0.059898984
0000b0 e3 f9 34 3d af 90 a8 bd bb 61 a1 3d e9 8c ae 3d
       0.044183623 -0.08230721 0.07879969 0.0852297
0000c0 e0 52 bf 3d 5e c2 b2 3c 2f 5b ce 3d 2c 61 e0 3c
       0.09341979 0.021821197 0.10075986 0.027390085
0000d0 a7 26 3b 3d 98 c0 c6 3d fe d9 b8 3d 0d 70 35 bc
       0.04569116 0.09704703 0.09025954 -0.011074078
0000e0 1e 8e 2b bb a4 4b 86 3d 14 c0 84 3d 54 77 36 3d
       -0.0026177238 0.06557396 0.064819485 0.044547394
0000f0 6f 8a 9e 3d a2 25 1c 3d 2b 14 a6 3c b1 09 a4 3c
       0.07741248 0.038121827 0.020273289 0.020024152
000100 79 e7 3f 3d 4a 2c ab 3c 98 d7 04 3d ff 4d 75 bc
       0.04685161 0.020895142 0.03243217 -0.014972209
000110 89 bf 17 bd 1b af cf bd be 78 4e 3d f0 b9 0f 3d
       -0.037047897 -0.101408206 0.050408117 0.035089433
000120 dc 86 9f bc ff e0 30 3d 26 7d 93 bb 10 02 80 3d
       -0.019473486 0.043183323 -0.004501003 0.062503934
000130 d1 41 10 3e 9a de 74 3d 7b 77 d3 3c 6c fb 78 3d
       0.14087607 0.059782602 0.025813809 0.06078665
000140 5c 29 0e 3c 9a 24 86 bc 6e c4 bb 3c 94 dd c3 3d
       0.008676853 -0.016374875 0.022920813 0.09563747
000150 46 2e 44 3b f2 07 43 bd e2 9c 18 bd 30 13 50 3a
       0.0029934808 -0.047615 -0.03725899 0.00079374295

velocity_layer.weight f4 [128, 128]
000000 81 5b c6 be 79 39 19 bf 04 f5 98 3d c9 97 cc be
       -0.38741687 -0.5985332 0.07468608 -0.39959553
000010 95 48 a6 be 8a 2f f6 3d 98 99 0d 40 3f 4b 74 be
       -0.3247725 0.12020786 2.2124996 -0.23856829
000020 54 f0 0b 3e e7 7f 92 be be 83 d8 3e aa 05 3d bf
       0.13665897 -0.28613207 0.4228801 -0.7383677
000030 0d ea ba 3e 63 14 ac bd 04 a5 ad be b1 2f 87 bd
       0.36506692 -0.08402326 -0.3391496 -0.06600893
000040 ef d1 ff be 2a 98 5b 3f 8a bf 7c 3e 9d 9a 98 be
       -0.49964854 0.8577906 0.24682441 -0.2980546
000050 44 83 3b 3f 90 1c 91 3f a0 4a 43 3d b8 eb 17 be
       0.7324717 1.1336842 0.04767859 -0.14836013
000060 e0 28 07 3e 0e 40 86 bf 2f f3 d3 be 8e 1b 58 bf
       0.13199186 -1.0488298 -0.41396472 -0.84417045
000070 98 e1 e3 3f 88 23 15 3f 83 13 6e 3d 2f 8a be 3f
       1.7803221 0.5825734 0.058124077 1.488592
000080 a8 e1 ab bf e5 47 84 3e f4 32 45 be 1e 2b 79 bf
       -1.342824 0.258361 -0.19257718 -0.97331417
000090 03 b1 d8 be d2 7e 07 be 38 49 9e 3e 8b 9b a0 3e
       -0.4232255 -0.13231972 0.30915236 0.3136867
0000a0 4a df a7 bd c9 81 96 3d f9 7a 45 3e 40 e6 49 bf
       -0.08196886 0.07348973 0.19285192 -0.7886696
0000b0 1c 57 08 be bb 73 b5 be 5f 4e 5e 3e f0 95 f6 be
       -0.1331448 -0.35439858 0.21709584 -0.48161268
0000c0 fc e7 54 3f 58 23 4d 3f 01 8f ca 3f e6 5d 65 3d
       0.8316648 0.80132055 1.5824891 0.05599775
0000d0 40 ba 36 bf ce a0 d0 bc 4f 71 91 3e 72 2d 06 bd
       -0.71377945 -0.025467303 0.2840676 -0.032758184
0000e0 c2 3d 81 3e 8b 67 18 be 6d 50 89 3e 4b 28 aa bc
       0.2524243 -0.14883249 0.26819173 -0.020771166
0000f0 51 6f d0 bd 73 c5 45 3e 5d 4b 96 bd 68 0e 59 3e
       -0.10177482 0.19313602 -0.07338593 0.21196902
000100 c7 7b 51 be 14 4c 0d 3f 20 47 b4 3e 0d 05 80 3e
       -0.20457374 0.5519421 0.35210514 0.25003853
000110 c5 22 3d bf 9a 81 48 3f 68 6d 5e 3d 4d 59 ea 3e
       -0.7388118 0.78322756 0.054303557 0.45771256
000120 a5 47 79 3d b1 be de 3d 2c 8f d9 3f c7 10 fb be
       0.06085934 0.10876215 1.6996818 -0.49036238
000130 db de 46 be 0a e3 dc 3e a0 5d 28 be b8 a4 db be
       -0.1942095 0.43141967 -0.16441965 -0.42899108
000140 0e c7 7a 3e ef fe 82 be 85 23 ed 3f 6b 9a 05 bf
       0.24489996 -0.25585124 1.8526465 -0.5218875
000150 d1 35 e7 3d 42 7b 72 be 64 d1 ad bd 53 ac 69 be
       0.112895615 -0.23679832 -0.08487204 -0.22819643
000160 8e 27 82 bd d8 ca cb bd 73 cf c4 3f 52 6a 55 3e
       -0.06355201 -0.09950799 1.5375808 0.20841339
000170 39 28 0e 3f e4 07 6f 3e 97 83 bf bf 44 67 d5 3f
       0.55530125 0.23342854 -1.4962033 1.6672139
000180 85 f9 43 3e 9f 93 24 3e de ea 03 be fe 33 8c be
       0.19138153 0.16071938 -0.12882563 -0.27383417
000190 77 62 13 3f 5c e2 51 3f eb 68 58 be 0a f7 ed 3e
       0.5757212 0.8198602 -0.21133773 0.46477538
0001a0 50 98 b9 3d 12 62 8a 3e fb 1b 2c 3f 08 46 cb be
       0.090622544 0.27027947 0.67230195 -0.39701867
0001b0 3c fa 25 3e 62 7f 2f 3e ca ba 8b 3e c0 95 4d 40
       0.16208738 0.17138436 0.27290946 3.212265
0001c0 02 77 34 bf 9c 63 71 3e 9a 32 6f be 5f 1d 19 3f
       -0.7049409 0.23573154 -0.23359147 0.5981044
0001d0 72 8d a3 3f fe 77 0d be 4f ca 39 bd e0 d6 7f 3e
       1.2777541 -0.13815305 -0.045358952 0.24984312
0001e0 2b 16 7b 3d 7e c4 7a be df 9c 92 3f 57 c3 f2 3d
       0.061300438 -0.24489018 1.1454123 0.11853664
0001f0 75 66 46 be 10 5f 8c be 6a aa b0 bf 40 ec dc be
       -0.19375022 -0.27416277 -1.3802006 -0.43148994
000200 91 84 96 be 30 eb 2f bf d1 b6 a6 3d e2 c0 cd be
       -0.29398015 -0.6871824 0.08140338 -0.4018622
000210 af 4b a6 be 56 da dd 3d 7b dc 04 40 95 ad 81 be
       -0.32479617 0.1083266 2.075957 -0.25327745
000220 e8 8c 3e 3e ca 5d 87 be 5d fb b7 3e 3a 33 4e bf
       0.18608439 -0.26438743 0.35933962 -0.80546916
000230 4b e9 d1 3e 09 3b 42 be a2 9f 89 be 2d c9 3b bd
       0.409983 -0.18967833 -0.26879603 -0.045846153
000240 86 db 22 bf ad 0b 6d 3f f9 25 77 3e e7 b2 a3 be
       -0.63616216 0.9259594 0.24135579 -0.3197243
000250 4e 69 35 3f 9d 8a 9a 3f 8a 9d f7 bc ea 37 7e be
       0.7086381 1.2073551 -0.030226488 -0.24826017
000260 ba d0 43 3e 4c 38 8d bf b4 97 b7 be a3 85 3c bf
       0.19122592 -1.1032805 -0.35857928 -0.73641413
000270 32 45 cd 3f 98 8a 20 3f b2 92 5b bd a0 65 bc 3f
       1.6036742 0.6271148 -0.053606696 1.4718513
000280 e3 89 95 bf 52 9d 8f 3e 8a 80 42 be fe 54 82 bf
       -1.1682705 0.28049713 -0.18994346 -1.0182188
000290 ac 9f d5 be 2c dc d4 bd 7f 9b c0 3e 6c 56 78 3e
       -0.41723382 -0.10393557 0.37618634 0.24251717
0002a0 d5 4d ba bd 80 22 96 3d 2d 30 89 3e 6e 4e 55 bf
       -0.090968765 0.07330799 0.26794568 -0.833228
0002b0 91 12 72 bd bc ae c7 be ed bb c2 3e 34 18 27 bf
       -0.059099738 -0.390005 0.38034 -0.65271306
0002c0 13 57 59 3f b9 69 53 3f 1e 96 d3 3f 6c bb 2a 3e
       0.8489849 0.82583195 1.6530187 0.16673058
0002d0 3b 2d 2b bf 17 f0 72 bd ae 6e 3e 3e 91 f2 25 be
       -0.6686589 -0.059311 0.18596908 -0.16205813
0002e0 ff 7c 80 3e 79 13 1a be b2 51 85 3e 2e d3 73 bd
       0.25095364 -0.1504649 0.2603889 -0.05952757
0002f0 43 c5 d4 bd d2 9a 41 3e 10 9e e7 bd 6e 61 74 3e
       -0.10389187 0.18906716 -0.11309445 0.23865291
000300 bd 39 38 be 74 5e 14 3f 97 8b 85 3e 19 54 62 3e
       -0.17990775 0.57956624 0.2608306 0.22102393
000310 d7 b7 3b bf c3 d4 5b 3f 0a 28 41 3d 16 5c d5 3e
       -0.7332739 0.85871524 0.047157325 0.41671818
000320 bc 71 0b 3e 0c cb 7c 3d 65 18 d0 3f 91 99 0a bf
       0.13617605 0.061717078 1.6257445 -0.54140574
000330 68 e3 75 be 6a 92 9a 3e ca 42 65 be ce ca 9c be
       -0.2401253 0.3018983 -0.2238876 -0.30623478
000340 0b 0c 29 3e 04 76 a2 be b0 dd e3 3f 50 d8 20 bf
       0.165085 -0.31730664 1.7802029 -0.62830067
000350 fb 1d b6 3d 46 90 8a be d6 df 1f be e0 33 1c be
       0.08892437 -0.27063197 -0.1561273 -0.15254164
000360 39 e9 fc bd 1d e9 f7 bd 3e 31 b4 3f 38 0b dd 3d
       -0.12349171 -0.1210501 1.4077528 0.107931554
000370 24 f8 2f 3f 7f 74 b7 3e 5d b1 ac bf f4 ee cb 3f
       0.6873801 0.35831067 -1.3491627 1.5932298
000380 92 43 18 3e 47 ed a9 3d fb 2e 8e be 60 15 82 be
       0.14869526 0.0829721 -0.27770218 -0.25406933
000390 ac c1 09 3f 4e 57 57 3f af 39 46 be 33 e9 ba 3e
       0.53811145 0.8411759 -0.19357942 0.36506042
0003a0 42 f0 d9 3d 1d a2 8e 3e ca 16 15 3f 30 61 08 bf
       0.10641529 0.27858058 0.582379 -0.53273296
0003b0 0c 5e 8e 3e 12 66 fb 3d 74 a5 b6 3e 5a a9 42 40
       0.27806127 0.12275328 0.35673106 3.0415864
0003c0 c3 a3 1b bf 8a e8 c2 3e 38 a6 6d be 9a ab 0e 3f
       -0.60796756 0.38068038 -0.23207939 0.55730593
0003d0 63 ea a7 3f 48 34 0d be 08 85 98 bd 66 8f 87 3e
       1.3118404 -0.13789475 -0.07447249 0.26476592
0003e0 0a c5 3d 3d 1f f6 22 be 1c 49 84 3f 7b f3 73 3e
       0.04633049 -0.159142 1.0334811 0.23823349
0003f0 66 66 1e be 99 75 98 be 89 29 a7 bf 3a 0f af be
       -0.1546875 -0.2977722 -1.305955 -0.34191304

velocity_layer.bias f4 [128]
000000 30 4b b4 be 5f 98 a4 be 97 9f a1 be 89 5d d8 be
       -0.35213614 -0.321475 -0.3156707 -0.42258862
000010 dc d5 ba be 4c af 9a be 33 46 be bd ac ca 2f be
       -0.36491287 -0.30211866 -0.09290733 -0.17167157
000020 78 3e 23 be 79 24 d2 bd 57 2c 1c bd a2 23 20 be
       -0.15941799 -0.10260863 -0.038128223 -0.15638593
000030 73 15 67 bd 29 ae d8 bc 15 4a f0 bd 80 17 10 be
       -0.05641694 -0.026450234 -0.1173288 -0.14071465
000040 e1 7e 15 be 0f 1b 90 bd 97 90 a0 bd 55 11 eb bc
       -0.14599182 -0.07036411 -0.07840078 -0.028694788
000050 4e 12 46 bd 8f af de bd 9f 85 c8 bd 03 c4 14 be
       -0.0483573 -0.10873329 -0.09791111 -0.14527898
000060 9a d3 da 3b ca 59 3a 3c 61 a4 d0 bd 95 95 00 be
       0.006678057 0.011373946 -0.10187603 -0.12557061
000070 37 61 b2 bc 3b 6f a5 3c a8 c8 26 bd 7c 80 94 bd
       -0.021774871 0.02019464 -0.040718704 -0.07251069
000080 03 44 3d 3d 2d d4 33 3c 0a 5e 17 3d 69 48 c3 3c
       0.04620744 0.01097588 0.036954917 0.023838239
000090 3b eb 55 ba 77 98 bb bd 40 77 02 3d ae 5f 2a 3d
       -0.0008160357 -0.0915994 0.031852007 0.041595154
0000a0 89 de 83 bc ad 9f 2c 3d e1 f8 35 bd 25 8c 0c bd
       -0.016097324 0.042144466 -0.044426803 -0.03431334
0000b0 ee 8f 9b bd 5a 07 02 bb 57 9d 2f bd 37 87 2a bc
       -0.07595812 -0.0019840808 -0.04287466 -0.010408214
0000c0 c7 ef ff 39 42 d3 fc 3c 70 7f c1 bd 00 ea 2c 3d
       0.00048816038 0.030862454 -0.09448135 0.042215347
0000d0 22 59 a0 bd e1 3e 16 bd 45 2a a3 bd 0a 98 e0 3c
       -0.07829501 -0.03668106 -0.07967047 0.027416248
0000e0 1f da 11 3c 5b ff 49 bd 66 40 99 bd 3e 63 76 bb
       0.008902102 -0.04931579 -0.07482986 -0.0037595774
0000f0 97 d1 be bb a3 f1 a3 bc 1a 66 7f 3c 59 7b 94 3b
       -0.005823325 -0.020012682 0.015588308 0.0045313057
000100 22 c7 ce bc fd 32 30 bd bb 40 38 bd 03 61 db 3c
       -0.025241438 -0.043017376 -0.044983607 0.026779657
000110 c3 00 23 bd 3a 09 19 3d 64 8b 3d 3c 20 ee 03 bd
       -0.03979565 0.037362315 0.011568878 -0.032209516
000120 98 da 51 bd 03 ec 0b 3c 97 46 d6 3d e2 98 99 3d
       -0.051233858 0.008540156 0.10462683 0.07499863
000130 95 0a e7 bc 08 f2 67 bd d5 54 b4 3d 35 01 c5 bc
       -0.028203288 -0.056627303 0.08805243 -0.024048427
000140 48 5f 8f 3d e6 0e 92 3d 51 ca c2 3c de 76 00 bd
       0.07000595 0.07131748 0.023778113 -0.03136336
000150 cb 70 b5 3c be c3 06 3e 09 ba 7e 3d 79 87 d2 3d
       0.02214851 0.13160607 0.062189136 0.102797456
000160 36 cb d6 3d 4c 7a 86 3c a4 d6 fd 3d 00 e0 29 3c
       0.10487978 0.016415738 0.12394455 0.010368347
000170 b1 ab c8 3d 7d 52 16 3e c0 f2 ae 3d ad 65 e8 3b
       0.097983725 0.14679904 0.08542395 0.007092199
000180 fc bd 11 3e 9d 54 3f 3e e4 89 16 3e 60 0d 94 3d
       0.1423263 0.18684621 0.14701039 0.072291136
000190 0f 99 1c bc 0c 37 49 3d 74 71 8a 3d df 6e 9a 3c
       -0.009557976 0.049124762 0.06759921 0.018851696
0001a0 da c5 4b bc fe f8 ca bc 6b a5 1a 3d 8e 15 09 3e
       -0.012437308 -0.024776932 0.03775541 0.13387129
0001b0 40 5c 56 bc 51 9e 6c bc ef 8b 46 bd 55 f0 cb bc
       -0.013083518 -0.014442042 -0.048473295 -0.024894873
0001c0 18 97 a8 3c 2c 66 19 3d 35 a3 27 be b2 d3 22 bc
       0.02057986 0.037450954 -0.16370852 -0.009938167
0001d0 63 d3 4e bd ae b8 e6 bd 64 27 c8 be 67 9f d2 3d
       -0.050494563 -0.112656936 -0.39092553 0.1028431
0001e0 3d 2d df be 83 aa da be 98 38 bf be a2 1e b9 be
       -0.43589202 -0.42708215 -0.37347865 -0.36156183
0001f0 94 04 9f be f9 3a 3f bd 14 d6 9b be 59 61 e1 be
       -0.3105818 -0.0466871 -0.30436766 -0.44019583
