models/model1.pth (torch, 390383 bytes, 10 tensors)

lstm.weight_ih_l0 f4 [512, 4]
00000000: bff6 aa3d 2df8 cb3d b7b2 093e 919a 193d
00000010: 4687 0b3e dc2f af3c 62cf 133e 4d18 c9bc
00000020: 7673 a9bd 6b9c 8f3d 7078 65bf d515 4bbf
00000030: 33e7 763d 1bba 8f3d 74df 97bd d088 08be
00000040: 70ef b3bd 5476 8b3d 7679 c0bd f6b5 9fbe
00000050: 13df 0b3d 89d7 423d cd8f d3bd 1fe5 863f
00000060: c930 91bd ffa8 e6ba 5326 ebbd 2dee 473f
00000070: a298 5e3e 6811 7bbd cd9c fbbe d45b 0cbe
00000080: 1b42 32bd f03c 90bc a760 5e3f 5da4 453e
00000090: 0f61 9cbd d987 003d 1030 91bf e87d f03e
000000a0: 68b0 82bc 5a69 ffbd 29e2 953e 0a9f ce3d
000000b0: e846 fd3d eea4 a83d 94c7 a9bb 15e9 37bd
000000c0: e840 803d 8b51 9b3d 06a2 26be cb8d f4bd
000000d0: a265 87be 4c9e edbb cfe3 b33d 9493 f53e
000000e0: 674d 3b3c 4f66 bfba 88dc cdbc a33b b1bb
000000f0: 7c83 2c3d ce9a dcbd 87e4 493e 5fcc 823e
00000100: ff9f 91bd f4c4 d8bd 283b a5bd 834c 163d
00000110: 58ec 07bc 8930 3cbd 8c55 7a3f 4363 b13f
00000120: 09c6 cc3d 1d81 f33d 4223 f53c fc1f ee3d
00000130: 2aa0 15be f39a afbd 1db6 1cbb 19b9 8cbd
00000140: 07d3 07bd 54b3 68bd 3c8d e9bd a139 de3d
00000150: 2a61 163d 498e bebb 7909 823e fd6d 1d3e
00000160: 9b9c 21bc 2e36 28bd d25d 1a3f be55 4e3f
00000170: 43c2 0cbb 679c 9c3d 5ea2 243e 36b5 3e3d
00000180: e0e0 76bd 22d6 54bd acac 56bf 2b6f c03e
00000190: a38f fd3d fe78 7c3c 436f 9b3d 4d6a 01be
000001a0: f2f6 0cbd 8626 0dbd fdb4 ab3f 432e a73f
000001b0: 4193 b6bd af64 8fbc 66a0 a93e 2ad4 dc3e
000001c0: bb1e 143d b7c3 babc b2ba 37bd ed6b 8e3c
000001d0: 9996 cd3d 845c af3d 772a 44be 6f05 df3c
000001e0: 1661 d4bc 6fbe c73d 87ce b6bd bff3 54bd
000001f0: 2279 8c3d f2ab d73d 081a 4dbd d2e1 8dbd
00000200: cbf9 4e3d 6c05 083c 5d63 46bf 5300 223d
00000210: 2907 0dbc 423e fa3c f153 693d 38ad 1f3e
00000220: 9a70 e6bd 235d 163c c310 29bf e06c e5be
00000230: 55d9 e1bd 6015 eb3d 7248 b83e 440e 243f
00000240: 260f 943d e95f eabd ab0d 233f 2678 193f
00000250: 6755 9a3b d374 f73d 5c52 52bc 9b3f 843d
00000260: 5357 213e 205a 3cbc b64c f93d 8f50 ddbd
00000270: 04e1 a1bc ba7f 9bbd 90e0 a8bd f36a 18be
00000280: e9bf 4ebd 63dc d63d f97f 11bf 09a8 2f3d
00000290: 0f91 bfbd f783 c0bc b2af 7ebe 6106 593f
000002a0: 85ff 91bd ad38 bbbd 2fa8 7bbd 4fd9 fe3d
000002b0: bf2f df3c 99da c2bd 8aa3 2abf 93b9 b93e
000002c0: 550f b2bc 2ade 89bd f429 b23d 4244 0e3e
000002d0: 50b0 debb 9b53 8dbd 8a60 8c3f 820b 8a3f
000002e0: b6a0 f33d cb26 2b3d ee20 2fbf e54c 9fbe
000002f0: 5c3c d3bc be91 083e 3675 af3c 4fc1 3b3f
00000300: 4183 f5bc e658 84bd 585c 6e3d 4830 803e
00000310: a974 023e a41e f93d 3992 c43d a2c6 8c3d
00000320: 64ee 19be b304 1a3d 9c4c aabc 18dd 283f
00000330: b559 83bc 65f8 273e d943 563c ecae 8d3f
00000340: b902 33bd c64a c43d a6bd 953e 7165 e3bc
00000350: 0310 d7bc 72f9 2cbd 9343 93bf ef76 30bf
00000360: c4f2 ca3d 5b0e 143d faad ae3b 4838 4ebd
00000370: 9e1f 47bd bded 243d 18cc c8bb ce16 313d
00000380: a0e4 12bd 67cf e7bc 6fa2 453f fff1 7d3e
00000390: ff70 89ba 861a a1bd 6d43 bc3e 3c97 6e3d
000003a0: 3913 20bd c3ca fb3d cf05 5f3d 3ef2 e93d
000003b0: d246 933d a122 873d 384f 85bd e1e1 9f3f
000003c0: 181e 7d3d dadd f6bc 47ae 1ebf 218e 00bf
000003d0: 0023 c2bd 3376 2ebd 90f5 1abf 1754 73bc
000003e0: 546d 97bc dae9 213e e6bb 5c3e 7e60 563f
000003f0: 24b5 443d 9561 683d 2685 b6bd a6e9 e5bd
0.08347844 0.09959445 0.1344708 0.03750092 0.13625821 0.021385126 0.14434579 -0.02454772
-0.082739756 0.07012256 -0.896369 -0.7933019 0.060279083 0.07017919 -0.07415667 -0.1333344
-0.087859035 0.06809679 -0.09398167 -0.31193513 0.034148287 0.04756883 -0.10330162 1.0538672
-0.07089383 -0.0017597972 -0.11481919 0.780978 0.21737912 -0.061295897 -0.49143067 -0.13706905
-0.043520074 -0.017607182 0.8686623 0.19300981 -0.076357 0.031379554 -1.1342793 0.4697106
-0.015953258 -0.12471266 0.2927411 0.10088928 0.1236704 0.08234583 -0.0051812623 -0.04490002
0.0626238 0.075839125 -0.16272745 -0.11941107 -0.26444727 -0.0072515365 0.087836854 0.47964156
0.011432028 -0.0014602634 -0.025129572 -0.0054087206 0.04211758 -0.10771714 0.19716083 0.25546548
-0.07110595 -0.10584441 -0.08067924 0.03669406 -0.008296095 -0.045944724 0.97786784 1.3858417
0.0999871 0.11889861 0.029924039 0.11627194 -0.14611879 -0.08574476 -0.002391226 -0.06871242
-0.033160236 -0.056811646 -0.114038914 0.108508356 0.036713757 -0.0058153016 0.25397852 0.15373988
-0.009863998 -0.041067295 0.6029941 0.8059958 -0.0021478094 0.07647019 0.16077563 0.046559535
-0.06027305 -0.051962025 -0.83857226 0.37584814 0.12380912 0.015409706 0.07589581 -0.12638207
-0.034415193 -0.034460567 1.3414608 1.3060993 -0.08914805 -0.017504064 0.33130187 0.43130618
0.03616212 -0.022798402 -0.04485578 0.017385447 0.1003849 0.08562568 -0.19156824 0.02722427
-0.0259252 0.09753119 -0.08926111 -0.051990267 0.06859042 0.10530843 -0.050073653 -0.069278374
0.05053119 0.008302074 -0.77495366 0.03955109 -0.008607664 0.030547265 0.05696482 0.15593421
-0.11251946 0.009177479 -0.660412 -0.44809628 -0.11027781 0.11478686 0.3599277 0.6408427
0.07229452 -0.11444075 0.6369273 0.59948957 0.004709888 0.12082829 -0.012837019 0.06457444
0.15755968 -0.011496097 0.121728346 -0.10806381 -0.019760616 -0.07592721 -0.08245957 -0.14884548
-0.05047599 0.10491254 -0.56835896 0.04288486 -0.093538396 -0.023500426 -0.2487171 0.8477536
-0.071288146 -0.091416694 -0.06143969 0.12443792 0.027244447 -0.095143504 -0.6665579 0.36274394
-0.021735827 -0.067318276 0.08699408 0.13893226 -0.0067959204 -0.06900712 1.0966961 1.0784762
0.118958876 0.041785043 -0.6840962 -0.31113353 -0.025785618 0.13336846 0.021418195 0.7334184
-0.029969813 -0.064622685 0.058193535 0.25036836 0.12739815 0.12164047 0.09598202 0.06873824
-0.15032345 0.037602138 -0.020788483 0.6596236 -0.016033987 0.16403349 0.0130777 1.1069007
-0.04370377 0.095845744 0.29246253 -0.027758332 -0.026252752 -0.042230077 -1.1504997 -0.6893148
0.09909585 0.036146503 0.005330798 -0.050346643 -0.048614137 0.040265787 -0.0061278455 0.04323464
-0.035862565 -0.02829714 0.7720098 0.24799345 -0.0010485946 -0.07866387 0.36770192 0.058249697
-0.039080832 0.12294533 0.0544489 0.11423157 0.07191242 0.06598402 -0.065092504 1.2490808
0.061796278 -0.030135084 -0.61984676 -0.5021687 -0.09479332 -0.042593192 -0.6053095 -0.014851592
-0.018484749 0.15811864 0.21556053 0.83740985 0.04802431 0.056733686 -0.08912115 -0.112262055

lstm.weight_hh_l0 f4 [512, 128]
00000000: 3150 ec3d d68a 2b3d 5ac3 e13d f845 893c
00000010: 617b 46be 9c6b c8bb 0dcd b13d 69bb b13d
00000020: b6ba 0ebd ac03 fa3c 0050 333b b2fe 9e3a
00000030: 79e0 ebbd 83c1 86bd c382 23be ebcf 8bbc
00000040: 7e93 53bd c688 273d e1fb 90bc f3aa bbbd
00000050: f477 ba3d cc0f d1bd 706f b8bd 6813 073e
00000060: 3a55 18be b28d 3abd 3098 4a3e d3f0 8a3d
00000070: 9111 2abe 59fe b8bd c3ff f3bc dabd 28bd
00000080: c84e 5abd 33dd c1bd 57da 64bd 29f2 a03d
00000090: b5d5 0abc 19d0 dbbc dfa7 0bbc 27d6 f9bd
000000a0: 2728 99bc f43a 9cbc 7b6a 97bd 7679 0b3e
000000b0: c8eb 98bd e9cb d13c efce a43d 75dd c7bd
000000c0: da21 933d 7945 8a3d 114b cd3d 0ad5 86bb
000000d0: d19c 5d3d fb97 f0bd 012c c13c 832f 5ebe
000000e0: 2d55 a33d a5ad af3d 2b9f d33c ec10 88bd
000000f0: c070 17bb 6c83 10bb bf20 a0bd 4c2f 4bbd
00000100: 30a3 773d 2afd ac3c 2de8 a6bd 5d72 363c
00000110: 239f 503e 05fc df3c 3d0d 5a3d 2115 5bbd
00000120: 1b49 29bd 89c3 b13d cff8 87bd ca7d 0dbe
00000130: 7256 793d 8717 233c 0148 71bb 7479 aa3d
00000140: c484 c33d e54e 27bd 69f1 0b3e b3c2 a33c
00000150: 42c7 d9bc 7e2e 4abd d549 fabd 59e0 26be
00000160: 6ac9 0a3e 62ca 57bc 49ec a43d 9c4c 683d
00000170: 9b41 963d 6d6c 0cbe 66ac c7bd 57a4 5cbc
00000180: ef98 bfbd 5808 db3c 0220 2b3e 3181 b43d
00000190: ce78 aa3b 8380 c53d 507c 10be fe45 a2bd
000001a0: 0037 5e3d ef24 73bd 9452 9dbd b770 54bd
000001b0: e980 e9bd 1299 c73c 2963 b03d 06e9 94bd
000001c0: 0db9 2c3c c7a7 80bd c377 3e3c c60a dabc
000001d0: 6dfd 13bd 3dcd ecbd bd06 d03b e073 143d
000001e0: 040c 44bd ea16 99bd 4d8e 12be bd10 78bd
000001f0: a69c 153e 039b 9bbc 7956 89bd 9462 473d
00000200: d7f4 9dbd c3de 773d 78f7 bcbd b150 4d3d
00000210: b338 923d 6dfa 493d 5c98 56bd 954d 963e
00000220: af66 11be 84fd abbd cccc 663d 50db 0f3d
00000230: d75b 5e3d 9e48 063d 9361 43bd f82d 873d
00000240: d068 523c 5386 33bc 5b1b 34bd d78f b53c
00000250: 145e b33d 1fb6 c1bd 9ee4 bfbd d7bb ce3c
00000260: a020 943c 76f0 f53d ba79 653c eb34 753d
00000270: 4fa3 dfbd 2fb8 3f3d 6336 c3bd a1b3 e7bd
00000280: d817 22bd ee41 35bd 058d 043e ac10 13be
00000290: ef85 5bbd 2315 923d 2d3d 013e cc24 5d3c
000002a0: 3d47 5b3d 9c4d 323c 7906 4bbd 5532 35bd
000002b0: d322 013c 4ab9 4bbd ba06 763d 0c21 1ebe
000002c0: 3509 0e3d 9ba5 c5bb 0efe 12bd 58e9 2e3d
000002d0: edae aabd 7c03 65bd 794e a83d 6a71 c43d
000002e0: 7009 a73d bab3 aebb 0b21 de3b f0a6 83bd
000002f0: 75c9 b73d d348 b03d a327 cfbb b896 9cbd
00000300: 53eb d73d ba1d 953d 376a 3ebc b9f0 43bd
00000310: 0ce7 683d 0517 483d c7f9 72bd 32d7 4ebd
00000320: 9b7e ffbc ccfb 1cbd 4cf1 b1bd a9b4 c53d
00000330: 409d a13d 2520 1b3d 3a61 93bc 67ef 24bd
00000340: de6e dabc 0da7 e5bc 7c9c e5bc e13a 84bd
00000350: 9ace 19be c707 58bd 7016 a03c 0652 83bd
00000360: 92e7 31bd 5a13 413d 7cc1 7e3d 5c64 e23c
00000370: f179 b6bc 49cf 42bc b550 723e 3e37 e0bd
00000380: b8b2 3e3d df6d 983d 1983 e2bc ab3a 66bc
00000390: 8f74 193b 01e4 073e e4b8 973c 4ad2 e2bd
000003a0: 50f3 443d b8ae 9fbd 2cfa d4bd 2325 da3c
000003b0: 4182 c5bd 6b8c 14bd 8459 053e 2be5 80bd
000003c0: de8b 89bd dd04 0ebe e53a 8fbb f53a b93d
000003d0: 4119 e4bc 8c0e 8fbd 7731 17be 6848 c4bd
000003e0: c866 93bd f43f 5f3d 09ac 6a3d 2cc9 de3d
000003f0: 32db 16bd 9e41 a53b 7686 a5bb b541 343d
0.11538733 0.04188045 0.110235885 0.016756997 -0.19383003 -0.0061163437 0.086816885 0.08678324
-0.03484603 0.030519329 0.0027360916 0.0012130348 -0.11517424 -0.06579878 -0.1596785 -0.017066916
-0.05165433 0.04090192 -0.01769823 -0.09163465 0.091049105 -0.10208091 -0.0900563 0.13190997
-0.14876261 -0.045545287 0.19784617 0.06784215 -0.16608264 -0.09032888 -0.029785043 -0.04119668
-0.053297788 -0.094660185 -0.055872288 0.078586884 -0.008473803 -0.026832627 -0.00852391 -0.121990494
-0.018695904 -0.01907108 -0.073933564 0.13620552 -0.07466847 0.025609927 0.08047282 -0.097590365
0.07184191 0.06751532 0.100240834 -0.0041147517 0.05410463 -0.11747738 0.023580553 -0.21697812
0.0797523 0.08578042 0.025832733 -0.066438526 -0.0023107976 -0.002205099 -0.07818746 -0.049605653
0.060458362 0.021116812 -0.08149753 0.011135665 0.20373206 0.027341852 0.05323528 -0.053486947
-0.041329484 0.086798735 -0.06639253 -0.13817516 0.060873456 0.00995434 -0.00368166 0.083239466
0.095468074 -0.040846724 0.1366631 0.0199903 -0.026584271 -0.049360745 -0.122211136 -0.1629652
0.13553396 -0.01317081 0.0805288 0.056713685 0.07336732 -0.13713236 -0.09749679 -0.013466916
-0.09355342 0.026737377 0.16711429 0.08813704 0.0052023893 0.09643652 -0.14109921 -0.07923506
0.05425167 -0.059361394 -0.07681766 -0.051865306 -0.11401541 0.024364982 0.08612663 -0.07271008
0.010542166 -0.06282001 0.011625233 -0.026616465 -0.036130358 -0.115625836 0.0063484595 0.03624332
-0.04786302 -0.07475074 -0.14312096 -0.060562838 0.14610538 -0.018994814 -0.067059465 0.048677996
-0.07712715 0.060515177 -0.092268884 0.05012578 0.07139721 0.04931109 -0.052391395 0.29356065
-0.14199327 -0.08397964 0.056347653 0.035121262 0.054286804 0.032784097 -0.047700476 0.06600565
0.012842372 -0.010957318 -0.0439714 0.022163315 0.08758178 -0.09458565 -0.09369777 0.025236053
0.018081963 0.12008755 0.014006073 0.05986492 -0.109198205 0.04680651 -0.09531858 -0.11313558
-0.03957352 -0.04425233 0.1294442 -0.14361829 -0.053594526 0.07132938 0.12620993 0.013497543
0.053534735 0.010882761 -0.04956672 -0.044237453 0.007881838 -0.049737252 0.06006501 -0.15442294
0.03467675 -0.0060317046 -0.035886817 0.042703003 -0.08334146 -0.055911526 0.082180925 0.095919445
0.08156097 -0.0053314837 0.0067788414 -0.06428325 0.08973972 0.0860764 -0.0063218637 -0.07645935
0.105429314 0.072810605 -0.011622003 -0.047836993 0.05686097 0.048850078 -0.059320237 -0.050498195
-0.0311883 -0.03832607 -0.08688602 0.09653599 0.07891321 0.037872452 -0.017990697 -0.040267374
-0.026664194 -0.028033758 -0.02802872 -0.06456543 -0.15020218 -0.052741792 0.019541949 -0.06412129
-0.043433733 0.047137596 0.06219624 0.027635746 -0.022274943 -0.011890241 0.236636 -0.109480366
0.04655716 0.07442831 -0.027650403 -0.0140520735 0.0023415422 0.1327057 0.01852078 -0.11075266
0.048083603 -0.07796997 -0.10399279 0.026629036 -0.096439846 -0.036266726 0.13022429 -0.0629371
-0.06716131 -0.13869043 -0.0043710344 0.09044448 -0.027844073 -0.069851965 -0.14764963 -0.09584123
-0.07197338 0.05450435 0.05729297 0.10878214 -0.036830135 0.0050432226 -0.0050514294 0.044007976

lstm.bias_ih_l0 f4 [512]
00000000: 7ae7 563d f684 a53d e1cc 643d 1938 92bd
00000010: 90dc 2cbe 8e53 b3be 5715 123d ccc3 82be
00000020: 58c1 b23d 3069 2cbd 98d8 94bd ec74 8bbd
00000030: 7433 793d d82b ec3d 7ed7 66bd 1c3f 5e3e
00000040: f453 1f3d 3027 303e 70e4 993d d4a5 4abd
00000050: 2898 4c3e af16 6d3d 000a dabb 3ff3 8f3d
00000060: 9579 b43d bcf8 393d 352b d03d 6192 073e
00000070: 949e 7b3d 75d7 debd 32d5 5f3d 5483 843d
00000080: 5dc3 cabd ce83 09bd e84f 743d 07ac 713d
00000090: 8a74 033e a6c9 6ebc 5163 9cbb 8362 9d3c
000000a0: ee91 dc3c a132 883d 4da1 933d 0e3e 853c
000000b0: 555a 443e 5c96 213e 1caa a5be f8b1 f5bd
000000c0: 0244 b9bc 96c1 8eba 8709 b93e 954e 58be
000000d0: 3dae 36be 1884 84bc ede0 82bd 4174 e33d
000000e0: 09fd f13c 2a2f 3f3e 1f81 163d d02e b7be
000000f0: 80ff 2fbe e5fd 293e c90f 94be a723 10bc
00000100: 7b14 983d 35c3 123e e25d 2ebd 2fa9 f1bc
00000110: 6af2 9abe 46e3 d03d 8c9b 6e3e a87e f5bd
00000120: 5afa c93c 6ea3 2fbc 3e83 9bbd e341 3d3c
00000130: b4d7 d53d ea4a 89bd 35e9 ae3d ab4f 32be
00000140: 3f1a b63c 59b1 343e 9ae3 92bd 6800 19bc
00000150: f7ef 97be af07 0f3d d23e 97bd 7511 503e
00000160: e4ac 0b3e 6c38 663e e4d5 413e 2f1c 503d
00000170: c5ee ecbc 58b4 293d 3f28 9f3e b37f c23d
00000180: a8d4 ccbd aab5 003c 6ef8 85be 3d19 a9bb
00000190: 8c82 1a3b 9ddc 1cbe f901 46bd 88e3 df3d
000001a0: abc4 84bd fb1c 933d b03c 0abe 079f 95bd
000001b0: a250 44bd 0142 f5bd ceb0 7bbc f152 31bc
000001c0: c8fd 803b 3912 95bd 9da9 013c 0da0 763d
000001d0: 62c2 913c a3c1 0fbe bf37 0ebf 00de e2bb
000001e0: 76c2 f9bd 0a17 bfbd ac84 c5bb debb 3bbd
000001f0: bf0c 373c c88b d43b 57c2 5abd aacb 72bd
00000200: 306a f33d e57b 73bd 3f50 ff3c 2b0f 293d
00000210: 83f9 b0bd f3f1 a1bd f1cf 503e 1631 533d
00000220: d63b e73d 28f7 8c3d 918c 8e3d 87e9 11bd
00000230: 9a04 48bd 624b 833d c215 363c 46ff 8d3d
00000240: 67e9 1e3e 55ba 953e bb9f c0bb ca20 40bd
00000250: 7861 5c3c bf19 c13c ad96 373d ec20 d03c
00000260: 6013 353e b791 f4bd 837d fc3d 7cd9 8e3e
00000270: 934e ac3c 74eb 2c3c f8a2 df3d 98b3 f73d
00000280: 7dd1 f13d 3634 dc3d b217 103e 1fa0 84bd
00000290: f5de 073e 77a9 be3d 25dc 83bd 70a6 b9bd
000002a0: e014 df3d ad7a 28bd 3049 05bc a8b6 293e
000002b0: 6d6f 2c3e 7ba1 1f3e 2d11 c03d 3468 193d
000002c0: 9445 62bd bef8 6c3c fa28 3d3e 3454 843d
000002d0: f2e3 d2bc 551e 283d 15df 543d 753a ca3d
000002e0: 2d58 a8bd b046 9c3e 9f81 823c 169e 8fbd
000002f0: 621f 7d3d 1510 0e3e eaee 093e 02d9 57bd
00000300: de74 fe3d 446a dc3d 649c 9b3d 4a29 e83d
00000310: 7289 433c c218 673c a4ed 983d 0dd9 0bbd
00000320: 401a 883d 2a1a 5cbd 6485 043d f1b3 c2bd
00000330: 94e4 453e b550 6abd 80dd b7bc c887 e3bd
00000340: 15f8 e53b 4f91 cdbb a56c b7bc 3d17 023d
00000350: 0ebb 1f3e 7148 0fbc 0c98 453e 93e3 633e
00000360: cb92 023e cd5f 17bd 15a8 ce3d cc72 8cbd
00000370: f613 f63d ea2f 1e3d 3126 5fbe 4a9b 9e3d
00000380: 9454 b0bd 5168 113d 6e98 82bd 3c8e c93d
00000390: b524 e33c 4076 1b3d f036 143e a6e3 443e
000003a0: b276 3e39 146c ca3d 0ea6 c33d b88e d43c
000003b0: 77e7 393e d242 273d 2ba6 f13d 9159 183d
000003c0: 1b9a 873d f3a4 7ebd 651b 28be e03f f03c
000003d0: 9cb2 543d 4c83 35bd eab4 593e 1523 14be
000003e0: 36bb 83bd b643 8c3d 6b83 ce3d 8fb6 1f3d
000003f0: 75e2 f2ba 1e4c 0f3d 4eb8 df3d 513d 08be
0.052466847 0.08082001 0.05585945 -0.07139606 -0.16881013 -0.35024685 0.035664883 -0.25540006
0.08728284 -0.042092502 -0.072678745 -0.068094105 0.060840085 0.115318 -0.056357853 0.21703762
0.038898423 0.17202449 0.07514274 -0.049474552 0.19979918 0.05788296 -0.006654024 0.070288174
0.088122524 0.045403227 0.10164491 0.13239433 0.06143053 -0.10880939 0.05464668 0.06470361
-0.09900544 -0.033572964 0.059646517 0.05900195 0.12837425 -0.014574444 -0.0047725816 0.019212013
0.026925053 0.06650282 0.072085 0.016264942 0.19175084 0.15780014 -0.32356346 -0.119968355
-0.022615436 -0.0010891433 0.3614008 -0.21123727 -0.17839904 -0.016176268 -0.063905574 0.11106158
0.029539602 0.18670335 0.036744233 -0.35777903 -0.1718731 0.1660076 -0.28918293 -0.008797563
0.07425781 0.14332278 -0.042570002 -0.029499618 -0.30263072 0.10199599 0.23301524 -0.119870484
0.02465551 -0.010720117 -0.07593392 0.011551353 0.10441533 -0.06703742 0.085405745 -0.17413203
0.022229312 0.17645778 -0.07172318 -0.009338476 -0.29675266 0.034919437 -0.07385029 0.2031916
0.13640171 0.2248246 0.18929249 0.050808128 -0.028922448 0.041431755 0.31085393 0.09497013
-0.100014985 0.007855812 -0.261661 -0.0051604793 0.0023576347 -0.15318532 -0.048341725 0.1093207
-0.06482824 0.07183262 -0.13499713 -0.07305723 -0.04792846 -0.1197548 -0.015361978 -0.010822997
0.003936503 -0.07278866 0.007913974 0.06021123 0.017792884 -0.1403871 -0.5555381 -0.006923437
-0.121952936 -0.09330566 -0.0060277786 -0.04583346 0.0111724725 0.00648639 -0.053407993 -0.05927626
0.11885488 -0.059444327 0.031166194 0.04127423 -0.086413406 -0.07907476 0.20391823 0.051560484
0.1129071 0.06883079 0.06960405 -0.0356231 -0.048832513 0.064108625 0.011113586 0.06933455
0.15518723 0.29243723 -0.0058784164 -0.04690627 0.013450973 0.023571847 0.04482143 0.025406323
0.17683172 -0.119418554 0.12328627 0.27900302 0.02103356 0.010554183 0.10919756 0.12094802
0.11807535 0.10752146 0.14071539 -0.06475853 0.13268645 0.093096666 -0.064384736 -0.090649486
0.108926535 -0.041132618 -0.008135125 0.16573584 0.1683938 0.15588944 0.09378276 0.03745289
-0.055242136 0.014463602 0.18472663 0.06461373 -0.025743458 0.041044552 0.05197056 0.09874431
-0.08219943 0.3052268 0.015930949 -0.070125744 0.061797507 0.13873322 0.13470045 -0.05269719
0.124246344 0.10762456 0.075981885 0.11336 0.011934625 0.014105024 0.07467201 -0.034142543
0.06645632 -0.05373589 0.032353774 -0.09506977 0.19325477 -0.057205874 -0.022444487 -0.111098826
0.007018099 -0.0062734256 -0.022390673 0.031760443 0.155987 -0.008745299 0.19296283 0.22254781
0.1275131 -0.036956597 0.10090653 -0.06857833 0.12015526 0.038619913 -0.21791913 0.07744463
-0.08609882 0.035499875 -0.0637673 0.09841582 0.027727464 0.03795457 0.14474082 0.19227466
0.0001816403 0.098838955 0.09553157 0.02594696 0.18154703 0.04083521 0.11799272 0.037194792
0.0662119 -0.062169027 -0.164167 0.029327333 0.051928148 -0.044314668 0.2126042 -0.14466508
-0.06432192 0.06848852 0.1008366 0.03899246 -0.0018530624 0.0349847 0.10923825 -0.1330464

lstm.bias_hh_l0 f4 [512]
00000000: a41e b13c e0a0 fa3c efee d13d 0a92 67bc
00000010: 6319 54be 03e1 abbe 9b02 073d fb98 a7be
00000020: fc62 453c 40ea eabd 5068 5ebc 21a9 f2bd
00000030: 25a6 a8bd e3ca b03d 7f36 3bbc 836b 453e
00000040: e1a7 e53c 9d1c d63d 8371 253e 38ca 36be
00000050: ffd1 193d c357 0e3d 8127 9f3d abf5 883c
00000060: e997 8a3d 4370 573d 91b1 fa3d d0c8 fe3d
00000070: 4be3 80bd b7a1 253d 4a46 723d 80fb 70bd
00000080: b75d a7bd 4804 e53d 3182 1b3e 9849 37bd
00000090: f02d 0a3e d239 b63d 9c54 16bc 8f7f 1cbd
000000a0: 828e a03b a4e7 273e 2dc8 4b3d 4685 2d3e
000000b0: 97de 353e 3eca 133e 58a5 88be 9126 07bd
000000c0: 8649 433c 1113 f53c 35c6 863e c34a 45be
000000d0: 916e 3dbe 3cb2 623d dd05 d1bd 5a27 053b
000000e0: c814 3e3d 92e4 a73e a968 4e3b a369 cdbe
000000f0: c770 0ebe 7cf4 083d 0f78 83be 6357 1abc
00000100: 340c 6ebd 195f 9e3e ad76 7abd a387 ea3a
00000110: 539f 9ebe 7893 c23d 35c1 c63d 0437 2ebd
00000120: 497e 043e da42 2e3a 130d eebd a22d 7dbb
00000130: 17cb 303e f8c9 86bd 5c72 573d 4fe4 33be
00000140: 6970 95bc 1f27 823d 88f4 6dbc 508d be3d
00000150: cbde 8fbe 9508 2a3d 4c8c 09be 4b3f 2d3e
00000160: cfd1 5b3d 74cc 093e acef 563e de3d 29bd
00000170: 49ac 18bd eb90 913d ea71 843e 991c 48bd
00000180: 4bb1 9fbd a8ad 34bd 5090 5cbe 5401 973d
00000190: 7298 a33d 6ab6 38bd 79af a53d f012 b13d
000001a0: 9fef da3c 570f c1bb 593c 5abe c451 bbbd
000001b0: 78c6 c4bc f3fd 0abe bfa1 823d 0e16 573d
000001c0: a1b5 d03d 1574 67bc a104 ffbb f5eb f1b9
000001d0: 582a 4a3c 33b9 e5bc 2af2 f5be df81 26bc
000001e0: 9339 a4bd 3ee2 9d3c 3a5b 9e3d 040f c43d
000001f0: 66d9 2a3d 7a9d f63a 4582 bd3c cf95 32bd
00000200: be6e 043e ebbf 10bd 01a8 243e b9f6 e43d
00000210: 7dcc 59bd 2e97 fb3c 5901 de3d 7ddc 7d3d
00000220: d8bb 103e 85e6 d23d df46 bf3d 909a ab3d
00000230: 4567 16bd 877e 193d 73f0 5bbd 1937 283e
00000240: 883c 963d 32c5 933e ac57 33bc fc1c 463c
00000250: 6c4f 3c3b bd19 7b3a 2528 443e 6e09 21bd
00000260: e082 e73d 8b5f b2bd f791 2d3e 0da4 473e
00000270: cea8 1a3e dbde 993d e67f 4a3c 9a98 033e
00000280: 4661 e33d 77fb 083e 3bec ca3d 3b30 acbd
00000290: 3837 ca3d 27c8 b53c 598c 80bd bb56 743d
000002a0: af3e caba 2b38 c1bd 4420 9c39 855f 313d
000002b0: 41b3 313e 42aa 093e 7464 4838 35b0 5d3d
000002c0: 9b3f b73c f407 cd3d cf08 ec3d ecd9 1f3d
000002d0: 5fe1 f5bd 5309 213c 8425 a63b f2de 823d
000002e0: bd38 e3bd 7b88 413e 6999 c33d 0d51 46bd
000002f0: edc8 99bb 6908 ee3d 3007 c53d 5c02 943d
00000300: 9002 203e 132a f03d e9a5 473e a762 a43d
00000310: 3bf4 9ebd 0b80 a43d 0a48 f63d 9801 073d
00000320: ff32 18bd 9c8b 513d 1880 99bc b6bd a7bb
00000330: bd0e 4a3e 14bf 3d3d c5a7 813d a91f 23be
00000340: e830 1a3d d3b9 033d 73e1 c6bd 24d4 62bd
00000350: 24eb 003d a750 813c a1d3 273e 1876 8b3e
00000360: e098 d73d c319 6d3d 0b19 cd3d c013 22bd
00000370: ff07 c6bc c194 5a3d 11e9 2abe c14d 04bd
00000380: b266 19be b4c3 5b3d 7054 d63c 2d30 d33d
00000390: 8bac 6bbc c110 60bd b71d 263e 3312 443e
000003a0: 824c 86bd 68d7 9d3c 776f e5bc 5ae5 e53c
000003b0: 5ed7 013e ae8e 23bd 7de9 7f3d 01ec 4dbc
000003c0: ae77 ca3c 7405 29bd fe49 25be cd4c 5bbd
000003d0: 525a 5fbd 2367 ca3b 9506 0f3e a3fd 87bc
000003e0: 80a7 f2bd 4895 343d bf33 0cbd d677 99bd
000003f0: a3a9 c93d 6d69 0f3d 3f50 603e 8f5f 7cbd
0.021621056 0.03059429 0.10250651 -0.0141339395 -0.2071281 -0.33570108 0.03296147 -0.32733902
0.0120475255 -0.11470461 -0.013574675 -0.11848665 -0.082348146 0.086324476 -0.011426567 0.19279294
0.028034152 0.10454676 0.16156583 -0.17850578 0.037553784 0.034751665 0.07771207 0.016718706
0.06767256 0.052597295 0.12240899 0.12440646 -0.06293353 0.040437426 0.059149064 -0.0588336
-0.081721716 0.11182457 0.15186383 -0.04474792 0.13494086 0.08897747 -0.009175446 -0.038207587
0.0048998008 0.16396958 0.04975145 0.16945371 0.17760693 0.14432618 -0.26688647 -0.032995764
0.011919385 0.029916318 0.26323095 -0.192668 -0.18499209 0.05534576 -0.102061965 0.0020317645
0.046406537 0.32791573 0.0031495488 -0.40119657 -0.13910209 0.033436283 -0.25677535 -0.009420249
-0.058117107 0.3093193 -0.061148334 0.0017893206 -0.3098093 0.09500784 0.0970482 -0.042532936
0.12938799 0.0006647535 -0.116235875 -0.0038631936 0.17264973 -0.06581491 0.052599296 -0.17567562
-0.018242078 0.06355118 -0.014523633 0.09304297 -0.28099665 0.04151209 -0.13432425 0.16918676
0.053666886 0.13456899 0.20989865 -0.041318767 -0.03727368 0.07107719 0.2586816 -0.048855398
-0.07797488 -0.044110924 -0.21539426 0.073733 0.07988061 -0.04509584 0.080901094 0.0864619
0.026725588 -0.005891721 -0.21312083 -0.09146455 -0.024020419 -0.13573436 0.06378507 0.052511267
0.10190893 -0.014126797 -0.007782534 -0.00046142904 0.012339197 -0.028042411 -0.4803632 -0.0101628
-0.08018794 0.01927292 0.07732244 0.095731765 0.041711234 0.0018815242 0.023133406 -0.0435999
0.1293287 -0.035339277 0.16079713 0.11179871 -0.05317353 0.030711737 0.10840101 0.061977852
0.14134157 0.10297874 0.093396895 0.0837909 -0.03671958 0.03747418 -0.053696107 0.16427268
0.07335764 0.28861386 -0.010946196 0.012091871 0.0028733863 0.00095787254 0.19155939 -0.039315633
0.11304259 -0.087096296 0.16950212 0.19496174 0.15103456 0.075132094 0.012359595 0.12851182
0.11102538 0.13377176 0.09908339 -0.08407637 0.098738134 0.022190167 -0.06276769 0.059653025
-0.0015430058 -0.09434541 0.00029778678 0.043303985 0.17353536 0.13443854 4.777727e-05 0.054123122
0.022369197 0.100112826 0.115251176 0.039026186 -0.12005877 0.009828883 0.00507039 0.0639018
-0.11094806 0.1889972 0.09550745 -0.04841714 -0.0046931417 0.11622698 0.096205115 0.072270125
0.15625978 0.11726775 0.19496883 0.08026629 -0.07761427 0.08032235 0.12025459 0.032960504
-0.03715801 0.051158533 -0.018737838 -0.005119051 0.19732185 0.046324804 0.063308276 -0.15930046
0.037644297 0.032159638 -0.0971097 -0.055378094 0.031474248 0.015785528 0.16389324 0.27238536
0.105272055 0.057885896 0.10014542 -0.039569616 -0.024173735 0.05336452 -0.1669047 -0.032300714
-0.14980581 0.053653434 0.02616331 0.10311923 -0.014384399 -0.054703478 0.16222273 0.19147567
-0.065575615 0.019267753 -0.028007252 0.028063465 0.12679812 -0.03993099 0.06247853 -0.012568475
0.02471527 -0.041264966 -0.16141507 -0.05354004 -0.054529496 0.0061768456 0.13967355 -0.016600436
-0.11848354 0.04408768 -0.034229036 -0.0749356 0.09846809 0.03501265 0.21905611 -0.06161457

pitch_layer.weight f4 [88, 128]
00000000: 8497 efbd cf94 2fbd fe53 fd3e 88f3 fe3e
00000010: fb12 38be 6d31 1dbe 1adc 903d a672 c83e
00000020: fdcc a33d 6c2c 8c3d 3e43 18bf 96ed da3d
00000030: 79fd 33be 11ed 63bb 33cb af3d 9746 9e3e
00000040: 27d4 2d3f a018 44be 2634 303f 4f33 bebb
00000050: 17f0 09be de9a 873e 6cbc ae3d 17fe d4bd
00000060: a50b aa3e a4ab 82bc ca4e 24bf 1aa5 90be
00000070: 5a89 fc3e 7614 723d a2c0 2f3e 3724 ffbd
00000080: da05 36be 968b b03e 9f96 50be 6f80 43be
00000090: fab2 c63d 8b5c a7bd 8ac1 bb3e 19ae 4e3e
000000a0: 3a73 5fbf a5be 643c 316d cb3e 7f74 6cbe
000000b0: e114 283f 0534 17bf 754b c4be 3842 f5bd
000000c0: f253 19bf d9c6 083e ad90 3d3e fa75 c13e
000000d0: 5aff 6cbe 24de 3bbe cf0f 063e 6200 50bc
000000e0: 9fcb 0cbe 9aa2 d9be 8ad9 1abe 4c0e 4abe
000000f0: e700 8b3e 327c 243d da1f cbbd 33f4 4c3e
00000100: b340 783e f7ec 223e f34e 2c3b 1b2b 4abe
00000110: d321 e5bc 7e41 d33d 8559 94be 5e68 24be
00000120: d67e debd a532 05be 922f edbd 54a4 e73d
00000130: 54d2 43bf 8c8f 5ebe cec7 a03d 84bc 1ebe
00000140: 971f 32bd 0515 bf3e 0033 963e a634 883e
00000150: c95c 9abe 4d96 2dbe 5df0 3e3e 0cd3 043e
00000160: 3eea 35be d642 5bbe 6ab8 b7be 9773 683d
00000170: db18 b0bd 0188 ce3e 38da 11bf 429e 013f
00000180: aad2 6c3e 768b f93d aad4 6d3e 45c1 81be
00000190: 898b d23d b7f8 ee3d e979 4d3e 8403 af3e
000001a0: 5a50 cfbe 9158 26be 420e 12bd 6e0d c8bd
000001b0: 3a7f 5cbf e2ed 1cbe 69e9 61bf aa89 1d3d
000001c0: f5be 86bd a21d 483e 9041 bf3e 3449 6dbe
000001d0: a542 453e 410a cb3d e28b 4c3d 1b76 bebe
000001e0: 6c5b 3abe 5209 87be e735 773e c9ec 56be
000001f0: 5cfc 1ebf 467a c6bd 8386 a73c 4dba 91bc
00000200: fe3e 8fbe 8248 333b 051a 953e 85cb 0d3f
00000210: 4368 76bd 764c d1bd 21eb e33d 0c48 f23d
00000220: 3f2a 2fbc 8335 443d 995c 50be 134d cc3d
00000230: 385c adbe d716 ba3d 30c8 633e 404a 9d3e
00000240: 0c40 983f 7c46 06be ce86 7a3e 6d08 96bc
00000250: b035 8ebe 267f 9e3e 8820 1a3e 54dc 64be
00000260: 35da 3b3e ba87 6c3d 4573 ffbe 5ae9 1cbe
00000270: f98e 953e 0304 2abc b886 b23e e3e0 38bd
00000280: 1219 89be 4146 a93e 649d ca3c 2677 aebe
00000290: 3ebd 2d3e b0d1 913e 4899 3d3e 453f e53e
000002a0: 9fd5 5ebe a362 1e3e 1fc8 763d 4748 8fbe
000002b0: acd3 b73e 710e a6be dc2c c9be e0e4 85be
000002c0: 959f d9be 07f6 b23d 9190 09bd c3d7 a33e
000002d0: 73a6 f7bc 273d 01be 3ad8 ef3d 9a3d 7dbd
000002e0: 0f30 dcbe f310 f0be 3a1a 04be 3d73 b8bc
000002f0: a288 323f 0188 abbd faa2 f3bd f657 663e
00000300: 5e4d 1bbe 63cc bf3d e9fa a0bd c04e a6be
00000310: 9d82 69bc 0a7d 433e 4ad0 b8be 9a9c 83be
00000320: c357 39be fb7d a23c 07f8 8ebd 84be 1b3e
00000330: 09f6 cabe fe44 a7bd 4e4c b43d 5856 78be
00000340: efcc 093e 744d 0c3e c2c2 df3e e66c a63e
00000350: 0268 6bbe fb73 cebd 4b97 533d e1bb f23d
00000360: 876a 4ebe c41f cebd 7aba b7be ef7d babb
00000370: 366a febd 2e9e 1c3e 1423 fcbd c006 de3d
00000380: de90 2d3f 012e 183e 8723 063d 0382 00be
00000390: bc9d 9d3d d7c6 9f3e b6cc 983e db86 ee3d
000003a0: 70e7 babe 5c0e afbe b88f b1bd 47d2 ecbd
000003b0: b846 2fbf 98d8 c43b a213 d1be f27c 193e
000003c0: 4424 223e a4b8 b23e 4644 963e f502 94be
000003d0: ca86 10bd 40b5 553e 6f16 1fbe fb56 4bbe
000003e0: 39f8 07be 51f2 23bd 1456 d83e 3604 9abe
000003f0: 6f56 3bbe a81e dfbd e11a 173d 1e3a 8c3c
-0.11698821 -0.042866524 0.49478143 0.49795175 -0.1797599 -0.15350886 0.07073231 0.3914997
0.07998083 0.0684441 -0.59477603 0.10689847 -0.17577161 -0.0034778754 0.08583679 0.3091323
0.67901844 -0.19150019 0.6882957 -0.0058044563 -0.13470493 0.26485342 0.08532032 -0.10400026
0.3321201 -0.015950985 -0.6418272 -0.28250962 0.4932354 0.059101544 0.17163327 -0.12458079
-0.1777567 0.34481496 -0.20369957 -0.19091962 0.09702106 -0.08171948 0.36671096 0.201836
-0.87285197 0.013961469 0.39731744 -0.23091315 0.6565686 -0.5906375 -0.3833882 -0.11975521
-0.59893715 0.13357104 0.1851222 0.3778532 -0.23144284 -0.18346459 0.13091968 -0.012695404
-0.1374955 -0.42506868 -0.15122047 -0.19732016 0.27149126 0.040157504 -0.099181846 0.2001503
0.24243431 0.15910707 0.0026292175 -0.19743006 -0.02797023 0.10315226 -0.28974548 -0.16055438
-0.10864036 -0.130076 -0.11581339 0.1131064 -0.7649281 -0.21734446 0.0785061 -0.155016
-0.043487158 0.37320724 0.29335785 0.26602668 -0.30148914 -0.16951866 0.18646379 0.12971133
-0.17765138 -0.21412215 -0.35882884 0.05675086 -0.08598491 0.40338138 -0.569736 0.5063211
0.23127237 0.12184803 0.23225656 -0.25342765 0.102805205 0.11668532 0.20066036 0.3418237
-0.4049099 -0.16244723 -0.03565813 -0.097681865 -0.8613163 -0.1532512 -0.8824678 0.038461365
-0.06579391 0.19542554 0.37354708 -0.23172456 0.19263704 0.09914065 0.04993809 -0.37199482
-0.18198937 -0.26374298 0.24141656 -0.20988764 -0.6210382 -0.096912906 0.020449882 -0.01778903
-0.27977747 0.002735645 0.29121414 0.5538867 -0.060158025 -0.10219662 0.11128832 0.11830148
-0.010691225 0.047902595 -0.20347823 0.09975638 -0.3385942 0.090863876 0.22244334 0.3072071
1.1894546 -0.13112825 0.24465486 -0.018314565 -0.27775335 0.30956382 0.15051472 -0.22349674
0.18344958 0.057746626 -0.4989263 -0.15323392 0.29210642 -0.010376933 0.34868407 -0.045136344
-0.2677694 0.33061412 0.024733253 -0.34075278 0.16966721 0.2848029 0.18515503 0.44774833
-0.21761177 0.15467314 0.060249444 -0.2798483 0.3590368 -0.32432893 -0.39292037 -0.2615118
-0.42504564 0.08738332 -0.033585135 0.3200055 -0.030230736 -0.12620984 0.11711164 -0.061826326
-0.43005416 -0.4688793 -0.1290063 -0.022515887 0.69739735 -0.0837555 -0.1189632 0.22494492
-0.15166232 0.093651555 -0.07860357 -0.32481956 -0.014252332 0.19090667 -0.36096412 -0.25705415
-0.18099885 0.019835463 -0.06980901 0.15209395 -0.39640835 -0.08167456 0.088036165 -0.24251688
0.13457082 0.13701421 0.43703276 0.32504958 -0.22988895 -0.10080715 0.051657956 0.11852241
-0.20157824 -0.100646526 -0.35884458 -0.005691282 -0.12422602 0.15294716 -0.12311378 0.10841131
0.67799175 0.14861299 0.032748725 -0.12549596 0.07696101 0.3120639 0.29843682 0.116468154
-0.36504698 -0.34190643 -0.0866999 -0.11563545 -0.68467283 0.0060072653 -0.4083529 0.14989069
0.15834147 0.34906495 0.29348963 -0.28908506 -0.035284795 0.20869923 -0.15535901 -0.19857399
-0.13278283 -0.040026013 0.42253172 -0.30081338 -0.1829469 -0.10894519 0.036890868 0.017117556

pitch_layer.bias f4 [88]
00000000: 24a5 23bd 7023 1abe 344d afbd d6b5 90bd
00000010: e744 033c a86b 7bbd f613 95bd b184 21bd
00000020: 8277 a13c fcfc d7bd b4ec 4e3d a399 adbd
00000030: de21 9d3d 6d4c 00bc 0479 4bbd a644 1c3b
00000040: bf6e 84bc 4531 873d cddb de3d cecb 08bd
00000050: 1387 6d3d 2818 443d 4dcf 94bd 1e4a 9d3c
00000060: 0817 4abd 689d 7fbd da77 403c d626 bcbc
00000070: 94db fdbc 65d0 83bd b475 4f3d 6634 053d
00000080: 5769 0d3d b376 08bd 163e 553c 7749 d0bc
00000090: b811 b1bc 0b41 0bbd 00d7 3dbd 43e6 363c
000000a0: 0e12 513d 70c7 313c f8fc c13d 6d90 003d
000000b0: d27d 803d 4471 823d 881d 94bc c8c2 633d
000000c0: 4c45 323d 1b7f 383d ba12 7ebd 0ac2 a73d
000000d0: 3836 f2bc 5039 eebc 7a71 7cbc 6479 753d
000000e0: 81c1 80bb 6e37 443d 7b47 a4bb 2ba7 3bbd
000000f0: 1967 703d 5fa5 7b3d ec41 653c 6fe9 27bb
00000100: f5d3 fe3c 245a 703d 3cbd 4b3b 1db0 563d
00000110: 1a32 8b3c d93c 89bd 1a06 bcbb 1987 49bc
00000120: b95a 88bd 9eef e13d ca14 dd3c 0fac 4c3d
00000130: 5b5c a73d 3ea7 ac3d 2cc5 cf3d c2bd 8e3d
00000140: ba25 ac3c 742b b03c 06ad 8bbd b590 933d
00000150: c01d 8abd e98f e3bd d983 cdbd fc15 bfbd
-0.039952412 -0.15052581 -0.08559647 -0.070659325 0.008012033 -0.061381966 -0.07279198 -0.039433185
0.019710306 -0.105463 0.050518706 -0.084765695 0.07672475 -0.007830721 -0.049675956 0.0023844629
-0.01616609 0.06601194 0.108817674 -0.03339749 0.057990145 0.0478746 -0.07266102 0.01920038
-0.04933837 -0.062405974 0.011747325 -0.022967737 -0.030988492 -0.064362325 0.05064936 0.032520674
0.034524288 -0.033316325 0.013015291 -0.025425656 -0.021614894 -0.033997577 -0.046347618 0.011163297
0.05104261 0.010850772 0.09472078 0.031387735 0.06273998 0.0636926 -0.018080488 0.05560568
0.043523118 0.045043092 -0.062029578 0.08191307 -0.02956687 -0.029080063 -0.015407914 0.05993022
-0.0039293175 0.047904424 -0.005013404 -0.04581372 0.05869207 0.061437007 0.013992768 -0.0025621315
0.031106928 0.058679715 0.0031088134 0.05241405 0.016991664 -0.06701059 -0.005738032 -0.012300276
-0.06657929 0.110320315 0.026987452 0.049968775 0.08171912 0.084303364 0.101450294 0.06969787
0.021014083 0.021505095 -0.06820111 0.07205335 -0.067439556 -0.11111433 -0.100349136 -0.09330365

velocity_layer.weight f4 [128, 128]
00000000: 4ed4 87bd 6037 adbd a282 1b3e 70a1 623e
00000010: 1458 d5be f775 17be e307 64be c2f7 0040
00000020: 3216 de3d 2885 11be 6c11 dabe f03e ca3d
00000030: b3d3 debd 9a29 e4be a86f e1bb 0713 4e3e
00000040: 3a32 12bd 1eab 50bf 27f9 d93e 7dd3 0e3c
00000050: 4832 64bd 62d9 2d3f 1aea 003e 0633 bcbd
00000060: d4e1 e03e ccbf c13d 0326 70bf 6771 28bf
00000070: 4144 883e d424 0a3f 1fc0 743d 84a7 16bd
00000080: 44b6 47bd 58db 9c3e ee47 64be fe42 96be
00000090: f519 6c3e a0be 6fbf 027d 923e 2e02 6d3e
000000a0: f6a6 29bf 091d 973d 69e0 e23e d59c 92be
000000b0: bec9 183f 411e 79bf 9488 9ebe 7f27 afbd
000000c0: 83da 16bf 54e1 223e 2306 233e 4e7d 013e
000000d0: c428 0bbd 5c08 1dbe 6267 de3d 604f 9c3f
000000e0: b4a9 93bd 9c25 49bf 7a95 bebd dc38 dcbe
000000f0: 7e69 183e e8ee 3ebe 1456 78be 388c 363e
00000100: bf80 3c40 464f 3f3e bf30 2d3e 0817 60bd
00000110: d298 cb3d ddf4 1b3e be68 89be df04 09be
00000120: 341b 19bf 0a8a ccbd 758a 2ebe 46df 143f
00000130: 483f 65bf 1fcc 79be fea0 f53d 2c61 39be
00000140: a78f 07bf 2e38 893e 8074 fc3d ea35 323e
00000150: 9809 a0be 08d3 75bd 4708 363e 58d0 803e
00000160: 3579 cdbf 3fb4 65be a2c6 75be 8cc6 993d
00000170: 9b26 b8bd 0b28 873d a8a6 96bf 21fe 1a40
00000180: c506 ea3d 5c07 6a3d 9f38 6b3e 9b5e 82bf
00000190: 7130 af3d 27b2 f43d ffea 1a3f d40b 963f
000001a0: 8d33 25be fd09 49be ad6c dbbd af96 35be
000001b0: ab16 52bd 5169 e1bd 408c 23bf 0c02 0e3e
000001c0: 9bd9 a63e 9790 743d c109 9a3d f6c2 15be
000001d0: 06bb 763f 4ff8 a3be 73a7 1ebe cc03 7ebf
000001e0: fc8f f4bc 2bb1 cfbe 2696 753e f0be b8bc
000001f0: 8da7 a2bf 6db7 e0bd b283 92bd e45f d9bb
00000200: b539 f1bd c514 babd facd 6b3e c763 c63e
00000210: db68 e9be 7cbf f7bd 368d 9cbe cd28 0040
00000220: e79c f73d ee28 d7bc d46d 08bf 0887 7e3d
00000230: 380a 04be 9247 0abf 3979 6d3d 98e8 f93d
00000240: e88b 46bb 6214 52bf 8b1e 073f 8e0e de3c
00000250: 0ac8 b9bd e5f0 323f 9095 433e 3771 53be
00000260: 3852 113f 212a ae3b 2deb 88bf 58a2 28bf
00000270: 4659 743e 7aa6 093f ad68 153d c86b 2dbe
00000280: f133 7abd 786e be3e c930 98be e2b2 5fbe
00000290: 15e7 913e 0b4e 5bbf e893 243e 0d86 2c3e
000002a0: 48af 4dbf 8da0 863d 8f63 163f c480 18be
000002b0: 1a37 343f ebb4 5ebf 6ccf 7fbe 77d1 39bd
000002c0: bb85 30bf 6d1a 7c3e 5d25 9a3d fb9d 303e
000002d0: 49eb 77bd 5387 b2bd df2d 593e 7d83 a13f
000002e0: 2a1f 04be 7ee4 50bf 8de7 d5bd 8a0e b1be
000002f0: e4c9 853d 0e36 1fbe a078 f7bd 5314 1d3e
00000300: cb9d 3f40 836f f33c 91ed 8d3e 5e19 97bd
00000310: 9d0c a53c 167f a33d afd7 9fbe 2214 4abe
00000320: 87a8 02bf 48c6 cdbd be69 59be 2679 dc3e
00000330: c8c4 80bf 2e2f 54be d197 1d3e 7e1f 36bd
00000340: e9b0 f1be c173 a03e fd5d f43d 61e1 423e
00000350: 24dd 92be 1136 0ebe 17cd 533e 995d 423e
00000360: f839 dfbf a849 54be 8a55 29be fb78 353d
00000370: 7d3d e0bd 4ca7 423e 8754 9ebf d953 1940
00000380: 4131 c93d da9b c73d d575 a23e 507f 89bf
00000390: 6eca 0b3e ce20 543d 698e 003f 59b1 9e3f
000003a0: 7415 b8bd 1d50 03be 22cf 2dbe 200a 35be
000003b0: ecef cb3d 0766 a7bd 70b5 16bf 79a3 af3d
000003c0: b65c 8b3e ee4c 193e 6ace 813d 3fcc 2cbd
000003d0: cae5 853f a7cf 93be 3353 84be 6812 83bf
000003e0: b44c f1bd 2760 dfbe f62a a23e c426 ffbd
000003f0: b107 a7bf 925a 25be 8913 81bd dcd6 88bc
-0.06632291 -0.084578276 0.15186551 0.22131896 -0.4166876 -0.14791094 -0.22268634 2.015122
0.10844077 -0.14210951 -0.42591417 0.098752856 -0.10880222 -0.4456299 -0.0068797655 0.20124446
-0.03569243 -0.81511104 0.425729 0.008717415 -0.055712014 0.67909825 0.12589303 -0.091894194
0.43922293 0.094604105 -0.93808 -0.6579804 0.26614574 0.53962445 0.059753533 -0.03678085
-0.048757806 0.30636096 -0.22293064 -0.29347986 0.23056777 -0.93650246 0.28610998 0.23145363
-0.6627039 0.07378585 0.44311836 -0.28635278 0.59682834 -0.9731179 -0.30963576 -0.08552455
-0.5892717 0.15906268 0.1592031 0.12645456 -0.033974424 -0.1533522 0.108595625 1.2211723
-0.07210103 -0.7857301 -0.09305854 -0.4301213 0.14883992 -0.18645823 -0.24251586 0.17826927
2.945358 0.18682584 0.16913126 -0.054709464 0.099412575 0.15230127 -0.26837724 -0.13380764
-0.59807134 -0.09987266 -0.17045005 0.5815319 -0.89549685 -0.24394272 0.119935974 -0.18103474
-0.5295357 0.26800674 0.12326908 0.17403379 -0.3125732 -0.06001571 0.17776595 0.25158954
-1.6052614 -0.2243204 -0.24001554 0.07508573 -0.089917384 0.065994345 -1.176961 2.4217608
0.114270724 0.057135925 0.22970818 -1.0185121 0.08554161 0.11948042 0.60514826 1.172236
-0.16132946 -0.19632716 -0.10714088 -0.17733262 -0.05129115 -0.11006416 -0.6388588 0.13867968
0.32587895 0.059708204 0.07521392 -0.14625153 0.96379125 -0.32025382 -0.15493564 -0.99224544
-0.029853813 -0.40564856 0.23983058 -0.022551984 -1.2707382 -0.10972486 -0.07154025 -0.0066337455
-0.11778585 -0.09085993 0.23027793 0.38748 -0.4558781 -0.120970696 -0.30576485 2.0024903
0.120904736 -0.026264634 -0.53292584 0.062140495 -0.12894523 -0.5401546 0.057976935 0.12202567
-0.0030295793 -0.8206235 0.5278098 0.02710655 -0.090713575 0.69898826 0.19100022 -0.20648657
0.5676608 0.0053150808 -1.069677 -0.65872717 0.2386218 0.5376965 0.03647678 -0.16935647
-0.06108469 0.37193656 -0.2972472 -0.21845582 0.28496614 -0.8566596 0.16072047 0.16848011
-0.8034558 0.065735914 0.58745664 -0.1489287 0.7039658 -0.8699481 -0.24981469 -0.045365777
-0.68954057 0.24619456 0.07526658 0.17247765 -0.06052712 -0.08717217 0.21208905 1.2618252
-0.12902513 -0.8159865 -0.104445554 -0.34581405 0.06532648 -0.15547964 -0.12083554 0.15339784
2.994006 0.029716259 0.2772031 -0.07377885 0.020147616 0.07983224 -0.3121924 -0.19734243
-0.510384 -0.10047585 -0.21231744 0.4306118 -1.0060053 -0.20721123 0.15389945 -0.044463627
-0.47205284 0.31338313 0.11931989 0.19031288 -0.28684342 -0.13887812 0.20683704 0.18981017
-1.7439566 -0.20731223 -0.16536537 0.04430483 -0.10949228 0.19009131 -1.2369546 2.3957427
0.098238476 0.09746523 0.31730524 -1.0741978 0.1365144 0.051789097 0.502173 1.2397872
-0.08988467 -0.1282353 -0.16973546 -0.17679644 0.09957871 -0.08173757 -0.588706 0.08576102
0.2721917 0.14970753 0.063381985 -0.04218697 1.0460751 -0.28869364 -0.25844726 -1.0239992
-0.11782208 -0.43628046 0.31673402 -0.12458566 -1.3049222 -0.16147831 -0.06302554 -0.016704015

velocity_layer.bias f4 [128]
00000000: 4d28 b8bd 0e96 afbd f55b 04be 29ef 1bbe
00000010: 0824 71bd 888c c6bd 303b 1b3a cf1a bebd
00000020: 5ed3 e2bd ac21 31bd 7ce1 d7bd fde9 f1bd
00000030: 52cb b73c 563a a1bc ea94 30bd 1470 82bd
00000040: 6cf8 b9bc 66ac f0bd 5046 02be 2041 00be
00000050: fcd3 4dbd 6218 343c 5275 a6bd 0dc8 bdbd
00000060: 2a84 17bb d62c c3bd 2331 483d 695e 91bc
00000070: 0471 04bd 255c 623a 86b8 9bbc 8804 2cbd
00000080: 5f02 81bd b109 8fbc 8890 123d 425e 88bd
00000090: 5dc9 dd3c 316c 8abd 41ff d5bb 947d a7bd
000000a0: 6e0e 97bd 506e d3bd 40d5 a3bd 1174 d23b
000000b0: a914 cfbc f866 18bd 9478 1b3c 0780 da3c
000000c0: 3339 8e3c 6f6f 973c c337 cabc 4a96 77bd
000000d0: f419 5abd 5894 f13b d750 2bbd f715 a7bc
000000e0: ee23 a0bd a6ae ecbb 514e 633d d126 543c
000000f0: 5572 bdbd df3c 64bd fd70 293d 97d1 673d
00000100: 50fb 8cbd c29e e7bc 7dd7 9dbd def2 893d
00000110: 41da c43c da19 c5bc 4a16 a4bd 82cb a33d
00000120: 6efb 153c 7d40 8fbd fd75 67bd 73f6 7c3d
00000130: a11a 893d 76a3 64bd 9728 8abd 5111 8dbc
00000140: d01b f13d 67af 9cbc 8637 433d aecd 9e3c
00000150: 903d d53d feed 8a3d c658 cd3b 7f5c 543d
00000160: 0ff4 d93d 46fa 613d 923f 4d3d 035b 2a3d
00000170: 6bdb d43d 0be2 8d3c 1b0a c13d ccc2 a43d
00000180: 03dd 173d fb11 7abb 3cd9 643d c667 963d
00000190: 8d21 aabb e1b0 ed3d 165c 093d 95b3 9a3d
000001a0: 38b7 a23d 6cf7 303b 9e45 0a3c 9e26 db3c
000001b0: 3418 d2bc 961a acbd a853 b2bc 7f14 35bb
000001c0: 7f35 32be dce8 973d b110 bebc ca6c 74bd
000001d0: 42dd 67be 830e 4abe 3b6a 9fbd 9edd 19be
000001e0: 35bf 10be bd6e 43be 6441 1fbe fdf1 bfbd
000001f0: c95d 38be 9990 1ebe 52bd 66be 3f19 2ebe
-0.08992062 -0.085735425 -0.12925704 -0.15227951 -0.058872253 -0.09694773 0.00059216004 -0.09282457
-0.11075471 -0.043245003 -0.105410546 -0.11812208 0.022435818 -0.019681137 -0.043110766 -0.063690335
-0.022701465 -0.117516324 -0.12722135 -0.12524843 -0.050250992 0.010992141 -0.08127846 -0.09266672
-0.0023119547 -0.09530036 0.048874985 -0.017745214 -0.032334343 0.00086349464 -0.019008886 -0.04199651
-0.062992804 -0.017460676 0.035782367 -0.06658603 0.027073557 -0.06758917 -0.006530673 -0.08178249
-0.07375799 -0.10323775 -0.079996586 0.0064225276 -0.025278406 -0.037207574 0.009489197 0.026672376
0.01736126 0.018485753 -0.024684792 -0.06044606 -0.053247407 0.0073724203 -0.04182514 -0.020396216
-0.07819353 -0.007222968 0.05549461 0.012948708 -0.09250323 -0.055722114 0.04136752 0.056596365
-0.068838716 -0.028273944 -0.07707117 0.06735776 0.024029853 -0.024060179 -0.08012064 0.079978004
0.009154184 -0.06994722 -0.056509007 0.06175847 0.06694532 -0.05581995 -0.06746023 -0.017220171
0.11772883 -0.019126607 0.047660373 0.019385185 0.10412133 0.06783675 0.006266686 0.051846024
0.106422536 0.05517032 0.050109453 0.0415907 0.10393413 0.0173197 0.094257556 0.08044967
0.037076008 -0.003815769 0.055871233 0.07344012 -0.005191988 0.116060026 0.033535086 0.07553784
0.079451025 0.0027002944 0.00843945 0.026751813 -0.025646307 -0.08403508 -0.021768406 -0.0027630625
-0.1740322 0.07417461 -0.023201318 -0.05967406 -0.22642997 -0.19732098 -0.07783934 -0.15025946
-0.1413544 -0.19085212 -0.15552288 -0.093723275 -0.18004526 -0.15484847 -0.22533157 -0.17001818

step_layer.weight f4 [1, 128]
00000000: 1d31 83bd d21a 133d 8ca6 c93a 05fb 4abd
00000010: 1ed6 62ba 0723 d5bb dd0b 3dbc 082b 023c
00000020: 8724 92bd d4bf d0bd 908b a23d 4344 8f3b
00000030: edd2 4cba 7bfa f93c 553f ac3d 4c3a 273c
00000040: 4c36 ef3d 798c f63c 9675 c8bd 03a1 36bd
00000050: fd2f 9a3b 8242 ff3c a3d6 abbd 6791 ca3d
00000060: e986 8f3d cd53 7c3c 35dc 283c 5d76 fa3c
00000070: 9b81 acbd 0137 133d 3617 04bd 4e09 c9bc
00000080: 063b 8fbc b08f 243d a270 933c 5501 e3bc
00000090: 6826 133d 219f aa3c 278e 113e a385 d53b
000000a0: 044e 07bd cc60 d73b 3d62 3cbc c86e 68bc
000000b0: da49 123c 2cf3 be3c 9053 4b3b 3411 ddbc
000000c0: 6423 e83c dfcc fa3c 4dd8 ce3b a97d 063a
000000d0: 0347 c1bc b17f 05bd b636 82bc c658 38bc
000000e0: cccb 183d 1cea 80bc 1ab3 793c 90da 8a3b
000000f0: ac83 77bb 520b 7b3b 4788 563b 47cb d13c
00000100: 19cf 393d 4b85 5a3d aeff a3bd 0010 153c
00000110: a233 62bb b781 b6bd 75d6 84bb af41 ddbb
00000120: 6557 843d acd7 d5bd 6c00 0fbd 3ba8 93bc
00000130: 2d32 8d3c c673 a1bc a031 56bc ae0e a8b9
00000140: f492 9ebd 5b64 1e3c 3b3a 25bd ea7a 373c
00000150: 41de 7fba 028e f3bc cd78 e8bc 5ea6 703d
00000160: ce4a de3c 490c 10bb 8af1 843c d3e9 5fbd
00000170: 0119 8bbc 07bd 133c 50c3 aa3c 1205 5bbd
00000180: d539 3c3c ea49 3abd 591a 893b 1836 c3bc
00000190: 7cdd 13be d3cd cdbc cb0c e9bb 14e1 233d
000001a0: cfda 553c 1e3c 12bd d3c0 85bd fdc1 883d
000001b0: 937a afbd 6624 443d a8b5 0b3d dc32 3cbd
000001c0: d2ed 1dbe 6c4c 06bb 950d 41bb b9a2 04bd
000001d0: 9756 54bb 4f1a 36bc ebec d6ba 878c f7bb
000001e0: 6c2c 783b 560a debb 681f febd 90ba 13bd
000001f0: 3c95 2b3d 8569 593d 9d6f 8bbc a9d9 20bd
-0.06405852 0.03591425 0.0015384718 -0.049555797 -0.0008653122 -0.0065044197 -0.011538473 0.00794483
-0.07135873 -0.10192838 0.07936776 0.004372151 -0.0007813413 0.030514946 0.08410517 0.01020677
0.11680278 0.03009628 -0.09788053 -0.044587146 0.0047054277 0.031159643 -0.08390548 0.098910145
0.07008154 0.015400839 0.010306408 0.030574018 -0.08423158 0.035941128 -0.0322487 -0.02454057
-0.0174842 0.040176094 0.017998043 -0.027710596 0.0359253 0.020827832 0.14214383 0.006516175
-0.033033386 0.0065728184 -0.011498031 -0.014186569 0.00892874 0.023309313 0.003102515 -0.026985742
0.028337188 0.030615268 0.006312406 0.0005130419 -0.023593431 -0.03259248 -0.015895229 -0.011251634
0.03730373 -0.015736632 0.015240455 0.0042374805 -0.0037767692 0.0038306308 0.0032735036 0.025609626
0.04536352 0.053349774 -0.080077514 0.009098053 -0.0034515639 -0.0891146 -0.0040538856 -0.006752215
0.06461982 -0.10441527 -0.03491251 -0.018024554 0.01723584 -0.019708525 -0.013073355 -0.00032054394
-0.07742873 0.009667481 -0.040338736 0.011198739 -0.00097605964 -0.0297308 -0.028377915 0.05875241
0.027135279 -0.0021979979 0.016228456 -0.05466635 -0.016979696 0.009017236 0.020845085 -0.053471632
0.011488398 -0.045480646 0.004184049 -0.023829505 -0.14439958 -0.025122559 -0.0071121207 0.040009573
0.013052656 -0.035701863 -0.06530919 0.06677625 -0.08568301 0.047886275 0.034108788 -0.04594694
-0.15422752 -0.0020492328 -0.0029457558 -0.032381747 -0.0032400244 -0.011114671 -0.0016397511 -0.007554594
0.0037868274 -0.0067761345 -0.12408334 -0.03606659 0.041890368 0.053079147 -0.017020995 -0.039270077

duration_layer.weight f4 [1, 128]
00000000: b7b6 453e 988f 853e d044 c13c 8e47 953d
00000010: b667 613c c140 643c e9bb 403d 19af a3bb
00000020: 762c f4bd 1d32 13be a5f1 413e c9e8 613e
00000030: acb6 febd ca3c 9a3d 3b87 adbc 9526 21bc
00000040: 6811 de3c ad0d 0f3e cdb1 c7bc d43e 23be
00000050: 546c efbb 2995 2bbe cd69 17be f63d 8a3e
00000060: b53c b33d 6365 3dbe 536c fc3d 60a4 8f3d
00000070: bbe6 2fbd 8dc7 3a3e cc79 ac3d d89e 8bbd
00000080: c202 8cbc 7cb6 f4bd 98fd 82bb ce97 f23d
00000090: 2f6f a3bc 8b80 c43c cb42 e1bc 12b1 58bc
000000a0: 32e7 a4bd fb30 cbbb 8d82 b1bd 88ad c0bd
000000b0: 3bf8 6cbc 157e 513d d009 273c 1cc5 13bd
000000c0: a6c7 e13c 4c1c 463e f039 be3c fbf2 8d3d
000000d0: b560 4b3b 48e5 8bbd 7100 633b 5872 0bbd
000000e0: 684a b33d 2aec 233d 7d47 afbd c7e2 193c
000000f0: a841 573c 7300 edbb 37bd e93b 7a2b 9bbd
00000100: f199 cc3d c52d 033d d43a 0abe 1f03 5b3d
00000110: e42e c6bc 0815 62bd e04c 273c 4702 0f3d
00000120: 07e9 b5bd eb68 1ebd 2f1b 67bc abc4 28bd
00000130: 550e aa3c 1090 6a3c f4bf aa3d e5de 893c
00000140: aff2 07bd 4e62 8bbc c866 95bd dfd6 80bb
00000150: 4ebe c8bc 69d6 f13d 35cd bc3c 4506 e03d
00000160: c14f b6bd e615 d5bb 998d d63d ce32 dabd
00000170: 09ce 2cba b0b3 f4bb b22e 9e3c 40c6 3ebe
00000180: b2c8 7a3b a5c5 27be 3f3e 22bc 6055 cfbd
00000190: 9863 01be 3c64 e63d 61bc c8bc f1d5 503d
000001a0: f3ca 09bd 2717 6abd 9f37 3abd 0099 be3e
000001b0: 8b0e 28bd 4e7a d73d bdd0 0fbd 3468 4a3c
000001c0: 1ddd 1bbe cf62 94bb a3b2 e0bc c866 183d
000001d0: e718 14bd 6ceb 733b 4ee4 183d ca5b 09bd
000001e0: 714c 68bb 8fc0 023d 9266 123c 0420 323e
000001f0: d9f9 de3c 1b05 743b fa21 153b ae6d 24bd
0.19307981 0.26086116 0.023592383 0.072890386 0.013757637 0.013931454 0.047054205 -0.0049952385
-0.11922543 -0.14374585 0.18939836 0.22061457 -0.12437186 0.07531126 -0.021182647 -0.009835859
0.02710791 0.1397006 -0.024376774 -0.15941936 -0.007306615 -0.16756119 -0.14786454 0.27000397
0.08751813 -0.18495707 0.12325349 0.07013774 -0.04294465 0.18240185 0.084216684 -0.068174064
-0.017091159 -0.11948869 -0.003997516 0.11845361 -0.019950477 0.023987075 -0.02749767 -0.013225811
-0.080519095 -0.0062009073 -0.08667479 -0.094080985 -0.01446348 0.05114563 0.010195211 -0.03607665
0.02756102 0.19346732 0.023220986 0.069311105 0.0031032984 -0.06830841 0.0034637714 -0.034044594
0.08754426 0.040020145 -0.08558557 0.009392447 0.013138212 -0.0072327196 0.007133152 -0.07576652
0.099902995 0.03202607 -0.13499004 0.053469773 -0.024192281 -0.05519584 0.0102111995 0.03491428
-0.08882337 -0.038674276 -0.014105602 -0.041203182 0.020758787 0.014316574 0.083373934 0.016829917
-0.033190425 -0.017014649 -0.072949946 -0.0039318646 -0.024504807 0.118084736 0.02304707 0.10938696
-0.089019306 -0.0065028546 0.10476226 -0.106542215 -0.0006591981 -0.0074677095 0.019309375 -0.18630314
0.0038266596 -0.16383989 -0.009902536 -0.10123706 -0.12635648 0.11249587 -0.024503889 0.05098528
-0.033640813 -0.057150986 -0.0454632 0.37226105 -0.041029494 0.10521375 -0.035111178 0.0123539455
-0.15221067 -0.0045283805 -0.02742893 0.037207395 -0.03615656 0.003721918 0.037327103 -0.033534802
-0.0035445953 0.03192192 0.0089355875 0.17395025 0.027218746 0.0037234488 0.0022755847 -0.04014366
